#loc = loc("/data/home/scyb494/.conda/envs/verl/lib/python3.10/site-packages/vllm/attention/ops/prefix_prefill.py":36:0)
#loc1 = loc(unknown)
#loc75 = loc("/data/home/scyb494/.conda/envs/verl/lib/python3.10/site-packages/vllm/attention/ops/prefix_prefill.py":190:38)
#loc82 = loc("/data/home/scyb494/.conda/envs/verl/lib/python3.10/site-packages/vllm/attention/ops/prefix_prefill.py":192:22)
#loc134 = loc("/data/home/scyb494/.conda/envs/verl/lib/python3.10/site-packages/vllm/attention/ops/prefix_prefill.py":252:38)
#loc139 = loc("/data/home/scyb494/.conda/envs/verl/lib/python3.10/site-packages/vllm/attention/ops/prefix_prefill.py":254:22)
#loc163 = loc(callsite(#loc1 at #loc75))
#loc166 = loc(callsite(#loc1 at #loc82))
#loc169 = loc(callsite(#loc1 at #loc134))
#loc171 = loc(callsite(#loc1 at #loc139))
module {
  tt.func public @_fwd_kernel(%arg0: !tt.ptr<bf16> {tt.divisibility = 16 : i32} loc("/data/home/scyb494/.conda/envs/verl/lib/python3.10/site-packages/vllm/attention/ops/prefix_prefill.py":36:0), %arg1: !tt.ptr<bf16> {tt.divisibility = 16 : i32} loc("/data/home/scyb494/.conda/envs/verl/lib/python3.10/site-packages/vllm/attention/ops/prefix_prefill.py":36:0), %arg2: !tt.ptr<bf16> {tt.divisibility = 16 : i32} loc("/data/home/scyb494/.conda/envs/verl/lib/python3.10/site-packages/vllm/attention/ops/prefix_prefill.py":36:0), %arg3: !tt.ptr<bf16> {tt.divisibility = 16 : i32} loc("/data/home/scyb494/.conda/envs/verl/lib/python3.10/site-packages/vllm/attention/ops/prefix_prefill.py":36:0), %arg4: !tt.ptr<bf16> {tt.divisibility = 16 : i32} loc("/data/home/scyb494/.conda/envs/verl/lib/python3.10/site-packages/vllm/attention/ops/prefix_prefill.py":36:0), %arg5: !tt.ptr<i32> {tt.divisibility = 16 : i32} loc("/data/home/scyb494/.conda/envs/verl/lib/python3.10/site-packages/vllm/attention/ops/prefix_prefill.py":36:0), %arg6: f32 loc("/data/home/scyb494/.conda/envs/verl/lib/python3.10/site-packages/vllm/attention/ops/prefix_prefill.py":36:0), %arg7: !tt.ptr<f32> {tt.divisibility = 16 : i32} loc("/data/home/scyb494/.conda/envs/verl/lib/python3.10/site-packages/vllm/attention/ops/prefix_prefill.py":36:0), %arg8: !tt.ptr<f32> {tt.divisibility = 16 : i32} loc("/data/home/scyb494/.conda/envs/verl/lib/python3.10/site-packages/vllm/attention/ops/prefix_prefill.py":36:0), %arg9: !tt.ptr<i32> {tt.divisibility = 16 : i32} loc("/data/home/scyb494/.conda/envs/verl/lib/python3.10/site-packages/vllm/attention/ops/prefix_prefill.py":36:0), %arg10: !tt.ptr<i32> {tt.divisibility = 16 : i32} loc("/data/home/scyb494/.conda/envs/verl/lib/python3.10/site-packages/vllm/attention/ops/prefix_prefill.py":36:0), %arg11: !tt.ptr<bf16> {tt.divisibility = 16 : i32} loc("/data/home/scyb494/.conda/envs/verl/lib/python3.10/site-packages/vllm/attention/ops/prefix_prefill.py":36:0), %arg12: i32 {tt.divisibility = 16 : i32} loc("/data/home/scyb494/.conda/envs/verl/lib/python3.10/site-packages/vllm/attention/ops/prefix_prefill.py":36:0), %arg13: i32 {tt.divisibility = 16 : i32} loc("/data/home/scyb494/.conda/envs/verl/lib/python3.10/site-packages/vllm/attention/ops/prefix_prefill.py":36:0), %arg14: i32 {tt.divisibility = 16 : i32} loc("/data/home/scyb494/.conda/envs/verl/lib/python3.10/site-packages/vllm/attention/ops/prefix_prefill.py":36:0), %arg15: i32 {tt.divisibility = 16 : i32} loc("/data/home/scyb494/.conda/envs/verl/lib/python3.10/site-packages/vllm/attention/ops/prefix_prefill.py":36:0), %arg16: i32 {tt.divisibility = 16 : i32} loc("/data/home/scyb494/.conda/envs/verl/lib/python3.10/site-packages/vllm/attention/ops/prefix_prefill.py":36:0), %arg17: i32 {tt.divisibility = 16 : i32} loc("/data/home/scyb494/.conda/envs/verl/lib/python3.10/site-packages/vllm/attention/ops/prefix_prefill.py":36:0), %arg18: i32 {tt.divisibility = 16 : i32} loc("/data/home/scyb494/.conda/envs/verl/lib/python3.10/site-packages/vllm/attention/ops/prefix_prefill.py":36:0), %arg19: i32 {tt.divisibility = 16 : i32} loc("/data/home/scyb494/.conda/envs/verl/lib/python3.10/site-packages/vllm/attention/ops/prefix_prefill.py":36:0), %arg20: i32 {tt.divisibility = 16 : i32} loc("/data/home/scyb494/.conda/envs/verl/lib/python3.10/site-packages/vllm/attention/ops/prefix_prefill.py":36:0), %arg21: i32 {tt.divisibility = 16 : i32} loc("/data/home/scyb494/.conda/envs/verl/lib/python3.10/site-packages/vllm/attention/ops/prefix_prefill.py":36:0), %arg22: i32 {tt.divisibility = 16 : i32} loc("/data/home/scyb494/.conda/envs/verl/lib/python3.10/site-packages/vllm/attention/ops/prefix_prefill.py":36:0), %arg23: i32 {tt.divisibility = 16 : i32} loc("/data/home/scyb494/.conda/envs/verl/lib/python3.10/site-packages/vllm/attention/ops/prefix_prefill.py":36:0), %arg24: i32 {tt.divisibility = 16 : i32} loc("/data/home/scyb494/.conda/envs/verl/lib/python3.10/site-packages/vllm/attention/ops/prefix_prefill.py":36:0), %arg25: i32 {tt.divisibility = 16 : i32} loc("/data/home/scyb494/.conda/envs/verl/lib/python3.10/site-packages/vllm/attention/ops/prefix_prefill.py":36:0)) attributes {noinline = false} {
    %cst = arith.constant dense<0.000000e+00> : tensor<128x64xf32> loc(#loc1)
    %cst_0 = arith.constant dense<0.000000e+00> : tensor<128x16xf32> loc(#loc1)
    %cst_1 = arith.constant dense<0.000000e+00> : tensor<128x128xf32> loc(#loc1)
    %cst_2 = arith.constant dense<0.000000e+00> : tensor<64x128xbf16> loc(#loc1)
    %cst_3 = arith.constant dense<0.000000e+00> : tensor<128x64xbf16> loc(#loc1)
    %c64_i32 = arith.constant 64 : i32 loc(#loc1)
    %cst_4 = arith.constant dense<0.000000e+00> : tensor<16x128xbf16> loc(#loc1)
    %cst_5 = arith.constant dense<0.000000e+00> : tensor<128x16xbf16> loc(#loc1)
    %c0_i32 = arith.constant 0 : i32 loc(#loc1)
    %cst_6 = arith.constant dense<0.000000e+00> : tensor<128x128xbf16> loc(#loc1)
    %cst_7 = arith.constant dense<0xFF800000> : tensor<128x64xf32> loc(#loc1)
    %cst_8 = arith.constant dense<0xFF800000> : tensor<128x16xf32> loc(#loc1)
    %cst_9 = arith.constant dense<8> : tensor<1x16xi32> loc(#loc1)
    %cst_10 = arith.constant dense<16> : tensor<1x16xi32> loc(#loc1)
    %cst_11 = arith.constant dense<8> : tensor<128x1xi32> loc(#loc1)
    %c16_i32 = arith.constant 16 : i32 loc(#loc1)
    %cst_12 = arith.constant dense<1.000000e+00> : tensor<128xf32> loc(#loc1)
    %cst_13 = arith.constant dense<0xFF800000> : tensor<128xf32> loc(#loc1)
    %cst_14 = arith.constant dense<0> : tensor<128xi32> loc(#loc1)
    %cst_15 = arith.constant dense<1> : tensor<128xi32> loc(#loc1)
    %cst_16 = arith.constant dense<128> : tensor<128xi32> loc(#loc1)
    %c128_i32 = arith.constant 128 : i32 loc(#loc1)
    %c1_i32 = arith.constant 1 : i32 loc(#loc1)
    %c6_i32 = arith.constant 6 : i32 loc(#loc1)
    %0 = tt.get_program_id x : i32 loc(#loc2)
    %1 = tt.get_program_id y : i32 loc(#loc3)
    %2 = tt.get_program_id z : i32 loc(#loc4)
    %3 = arith.divsi %1, %c6_i32 : i32 loc(#loc5)
    %4 = tt.addptr %arg10, %0 : !tt.ptr<i32>, i32 loc(#loc6)
    %5 = tt.load %4 : !tt.ptr<i32> loc(#loc7)
    %6 = tt.addptr %arg9, %0 : !tt.ptr<i32>, i32 loc(#loc8)
    %7 = tt.load %6 : !tt.ptr<i32> loc(#loc9)
    %8 = tt.addptr %6, %c1_i32 : !tt.ptr<i32>, i32 loc(#loc10)
    %9 = tt.load %8 : !tt.ptr<i32> loc(#loc11)
    %10 = arith.subi %9, %7 : i32 loc(#loc12)
    %11 = arith.subi %5, %10 : i32 loc(#loc13)
    %12 = arith.muli %2, %c128_i32 : i32 loc(#loc14)
    %13 = tt.make_range {end = 16 : i32, start = 0 : i32} : tensor<16xi32> loc(#loc15)
    %14 = tt.make_range {end = 64 : i32, start = 0 : i32} : tensor<64xi32> loc(#loc16)
    %15 = tt.make_range {end = 128 : i32, start = 0 : i32} : tensor<128xi32> loc(#loc17)
    %16 = tt.splat %12 : i32 -> tensor<128xi32> loc(#loc18)
    %17 = arith.addi %16, %15 : tensor<128xi32> loc(#loc18)
    %18 = tt.expand_dims %17 {axis = 1 : i32} : tensor<128xi32> -> tensor<128x1xi32> loc(#loc19)
    %19 = tt.splat %7 : i32 -> tensor<128x1xi32> loc(#loc20)
    %20 = arith.addi %19, %18 : tensor<128x1xi32> loc(#loc20)
    %21 = tt.splat %arg12 : i32 -> tensor<128x1xi32> loc(#loc21)
    %22 = arith.muli %20, %21 : tensor<128x1xi32> loc(#loc21)
    %23 = arith.muli %1, %arg13 : i32 loc(#loc22)
    %24 = tt.splat %23 : i32 -> tensor<128x1xi32> loc(#loc23)
    %25 = arith.addi %22, %24 : tensor<128x1xi32> loc(#loc23)
    %26 = tt.expand_dims %15 {axis = 0 : i32} : tensor<128xi32> -> tensor<1x128xi32> loc(#loc24)
    %27 = tt.broadcast %25 : tensor<128x1xi32> -> tensor<128x128xi32> loc(#loc25)
    %28 = tt.broadcast %26 : tensor<1x128xi32> -> tensor<128x128xi32> loc(#loc25)
    %29 = arith.addi %27, %28 : tensor<128x128xi32> loc(#loc25)
    %30 = arith.cmpi slt, %15, %cst_16 : tensor<128xi32> loc(#loc26)
    %31 = arith.select %30, %cst_15, %cst_14 : tensor<128xi1>, tensor<128xi32> loc(#loc27)
    %32 = arith.cmpi ne, %31, %cst_14 : tensor<128xi32> loc(#loc28)
    %33 = tt.expand_dims %32 {axis = 0 : i32} : tensor<128xi1> -> tensor<1x128xi1> loc(#loc29)
    %34 = tt.splat %10 : i32 -> tensor<128x1xi32> loc(#loc30)
    %35 = arith.cmpi slt, %18, %34 : tensor<128x1xi32> loc(#loc30)
    %36 = tt.broadcast %33 : tensor<1x128xi1> -> tensor<128x128xi1> loc(#loc31)
    %37 = tt.broadcast %35 : tensor<128x1xi1> -> tensor<128x128xi1> loc(#loc31)
    %38 = arith.andi %36, %37 : tensor<128x128xi1> loc(#loc31)
    %39 = tt.splat %arg0 : !tt.ptr<bf16> -> tensor<128x128x!tt.ptr<bf16>> loc(#loc32)
    %40 = tt.addptr %39, %29 : tensor<128x128x!tt.ptr<bf16>>, tensor<128x128xi32> loc(#loc32)
    %41 = tt.load %40, %38, %cst_6 : tensor<128x128x!tt.ptr<bf16>> loc(#loc33)
    %42 = tt.addptr %arg5, %0 : !tt.ptr<i32>, i32 loc(#loc34)
    %43 = arith.muli %3, %arg21 : i32 loc(#loc35)
    %44 = tt.expand_dims %15 {axis = 1 : i32} : tensor<128xi32> -> tensor<128x1xi32> loc(#loc36)
    %45 = arith.divsi %44, %cst_11 : tensor<128x1xi32> loc(#loc37)
    %46 = tt.splat %arg22 : i32 -> tensor<128x1xi32> loc(#loc38)
    %47 = arith.muli %45, %46 : tensor<128x1xi32> loc(#loc38)
    %48 = tt.expand_dims %13 {axis = 0 : i32} : tensor<16xi32> -> tensor<1x16xi32> loc(#loc39)
    %49 = arith.remsi %44, %cst_11 : tensor<128x1xi32> loc(#loc40)
    %50 = tt.broadcast %49 : tensor<128x1xi32> -> tensor<128x16xi32> loc(#loc41)
    %51 = arith.muli %3, %arg24 : i32 loc(#loc42)
    %52 = tt.splat %arg25 : i32 -> tensor<1x128xi32> loc(#loc43)
    %53 = arith.muli %26, %52 : tensor<1x128xi32> loc(#loc43)
    %54 = tt.expand_dims %13 {axis = 1 : i32} : tensor<16xi32> -> tensor<16x1xi32> loc(#loc44)
    %55 = tt.broadcast %54 : tensor<16x1xi32> -> tensor<16x128xi32> loc(#loc45)
    %56 = tt.splat %11 : i32 -> tensor<1x16xi32> loc(#loc46)
    %57 = tt.splat %arg6 : f32 -> tensor<128x16xf32> loc(#loc47)
    %58 = arith.subi %11, %c0_i32 : i32 loc(#loc48)
    %c1_i32_17 = arith.constant 1 : i32 loc(#loc48)
    %59 = arith.subi %c16_i32, %c1_i32_17 : i32 loc(#loc48)
    %60 = arith.addi %58, %59 : i32 loc(#loc48)
    %61 = arith.divui %60, %c16_i32 : i32 loc(#loc48)
    %c4_i32 = arith.constant 4 : i32 loc(#loc48)
    %62 = arith.remsi %61, %c4_i32 : i32 loc(#loc48)
    %63 = arith.subi %61, %62 : i32 loc(#loc48)
    %64 = arith.muli %63, %c16_i32 : i32 loc(#loc48)
    %65 = arith.addi %c0_i32, %64 : i32 loc(#loc48)
    %66 = arith.muli %c16_i32, %c4_i32 : i32 loc(#loc48)
    %67:3 = scf.for %arg26 = %c0_i32 to %65 step %66 iter_args(%arg27 = %cst_1, %arg28 = %cst_12, %arg29 = %cst_13) -> (tensor<128x128xf32>, tensor<128xf32>, tensor<128xf32>)  : i32 {
      %118 = arith.divsi %arg26, %c16_i32 : i32 loc(#loc49)
      %119 = tt.addptr %42, %118 : !tt.ptr<i32>, i32 loc(#loc50)
      %120 = tt.load %119 : !tt.ptr<i32> loc(#loc51)
      %121 = arith.muli %120, %arg20 : i32 loc(#loc52)
      %122 = arith.addi %121, %43 : i32 loc(#loc53)
      %123 = tt.splat %122 : i32 -> tensor<128x1xi32> loc(#loc54)
      %124 = arith.addi %123, %47 : tensor<128x1xi32> loc(#loc54)
      %125 = tt.splat %arg26 : i32 -> tensor<1x16xi32> loc(#loc55)
      %126 = arith.addi %125, %48 : tensor<1x16xi32> loc(#loc55)
      %127 = arith.remsi %126, %cst_10 : tensor<1x16xi32> loc(#loc56)
      %128 = arith.muli %127, %cst_9 : tensor<1x16xi32> loc(#loc57)
      %129 = tt.broadcast %124 : tensor<128x1xi32> -> tensor<128x16xi32> loc(#loc58)
      %130 = tt.broadcast %128 : tensor<1x16xi32> -> tensor<128x16xi32> loc(#loc58)
      %131 = arith.addi %129, %130 : tensor<128x16xi32> loc(#loc58)
      %132 = arith.addi %131, %50 : tensor<128x16xi32> loc(#loc41)
      %133 = arith.muli %120, %arg23 : i32 loc(#loc59)
      %134 = arith.addi %133, %51 : i32 loc(#loc60)
      %135 = tt.splat %134 : i32 -> tensor<1x128xi32> loc(#loc61)
      %136 = arith.addi %135, %53 : tensor<1x128xi32> loc(#loc61)
      %137 = tt.broadcast %136 : tensor<1x128xi32> -> tensor<16x128xi32> loc(#loc45)
      %138 = arith.addi %137, %55 : tensor<16x128xi32> loc(#loc45)
      %139 = arith.addi %arg26, %c16_i32 : i32 loc(#loc62)
      %140 = arith.cmpi sgt, %139, %11 : i32 loc(#loc63)
      %141 = scf.if %140 -> (tensor<128x16xbf16>) {
        %308 = tt.expand_dims %32 {axis = 1 : i32} : tensor<128xi1> -> tensor<128x1xi1> loc(#loc65)
        %309 = tt.splat %11 : i32 -> tensor<1x16xi32> loc(#loc66)
        %310 = arith.cmpi slt, %126, %309 : tensor<1x16xi32> loc(#loc66)
        %311 = tt.broadcast %308 : tensor<128x1xi1> -> tensor<128x16xi1> loc(#loc67)
        %312 = tt.broadcast %310 : tensor<1x16xi1> -> tensor<128x16xi1> loc(#loc67)
        %313 = arith.andi %311, %312 : tensor<128x16xi1> loc(#loc67)
        %314 = tt.splat %arg3 : !tt.ptr<bf16> -> tensor<128x16x!tt.ptr<bf16>> loc(#loc68)
        %315 = tt.addptr %314, %132 : tensor<128x16x!tt.ptr<bf16>>, tensor<128x16xi32> loc(#loc68)
        %316 = tt.load %315, %313, %cst_5 : tensor<128x16x!tt.ptr<bf16>> loc(#loc69)
        scf.yield %316 : tensor<128x16xbf16> loc(#loc69)
      } else {
        %308 = tt.splat %arg3 : !tt.ptr<bf16> -> tensor<128x16x!tt.ptr<bf16>> loc(#loc70)
        %309 = tt.addptr %308, %132 : tensor<128x16x!tt.ptr<bf16>>, tensor<128x16xi32> loc(#loc70)
        %310 = tt.load %309 : tensor<128x16x!tt.ptr<bf16>> loc(#loc71)
        scf.yield %310 : tensor<128x16xbf16> loc(#loc71)
      } loc(#loc64)
      %142 = tt.dot %41, %141, %cst_0, inputPrecision = tf32 : tensor<128x128xbf16> * tensor<128x16xbf16> -> tensor<128x16xf32> loc(#loc72)
      %143 = arith.cmpi slt, %126, %56 : tensor<1x16xi32> loc(#loc46)
      %144 = tt.broadcast %143 : tensor<1x16xi1> -> tensor<128x16xi1> loc(#loc73)
      %145 = arith.select %144, %142, %cst_8 : tensor<128x16xi1>, tensor<128x16xf32> loc(#loc73)
      %146 = arith.mulf %145, %57 : tensor<128x16xf32> loc(#loc47)
      %147 = "tt.reduce"(%146) <{axis = 1 : i32}> ({
      ^bb0(%arg30: f32 loc(callsite(#loc1 at #loc75)), %arg31: f32 loc(callsite(#loc1 at #loc75))):
        %308 = arith.maxnumf %arg30, %arg31 : f32 loc(#loc172)
        tt.reduce.return %308 : f32 loc(#loc162)
      }) : (tensor<128x16xf32>) -> tensor<128xf32> loc(#loc162)
      %148 = arith.maxnumf %arg29, %147 : tensor<128xf32> loc(#loc77)
      %149 = tt.expand_dims %148 {axis = 1 : i32} : tensor<128xf32> -> tensor<128x1xf32> loc(#loc78)
      %150 = tt.broadcast %149 : tensor<128x1xf32> -> tensor<128x16xf32> loc(#loc79)
      %151 = arith.subf %146, %150 : tensor<128x16xf32> loc(#loc79)
      %152 = math.exp %151 : tensor<128x16xf32> loc(#loc80)
      %153 = "tt.reduce"(%152) <{axis = 1 : i32}> ({
      ^bb0(%arg30: f32 loc(callsite(#loc1 at #loc82)), %arg31: f32 loc(callsite(#loc1 at #loc82))):
        %308 = arith.addf %arg30, %arg31 : f32 loc(#loc173)
        tt.reduce.return %308 : f32 loc(#loc165)
      }) : (tensor<128x16xf32>) -> tensor<128xf32> loc(#loc165)
      %154 = arith.subf %arg29, %148 : tensor<128xf32> loc(#loc84)
      %155 = math.exp %154 : tensor<128xf32> loc(#loc85)
      %156 = tt.expand_dims %155 {axis = 1 : i32} : tensor<128xf32> -> tensor<128x1xf32> loc(#loc86)
      %157 = tt.broadcast %156 : tensor<128x1xf32> -> tensor<128x128xf32> loc(#loc87)
      %158 = arith.mulf %arg27, %157 : tensor<128x128xf32> loc(#loc87)
      %159 = scf.if %140 -> (tensor<16x128xbf16>) {
        %308 = tt.splat %arg26 : i32 -> tensor<16x1xi32> loc(#loc89)
        %309 = arith.addi %308, %54 : tensor<16x1xi32> loc(#loc89)
        %310 = tt.splat %11 : i32 -> tensor<16x1xi32> loc(#loc90)
        %311 = arith.cmpi slt, %309, %310 : tensor<16x1xi32> loc(#loc90)
        %312 = tt.broadcast %33 : tensor<1x128xi1> -> tensor<16x128xi1> loc(#loc91)
        %313 = tt.broadcast %311 : tensor<16x1xi1> -> tensor<16x128xi1> loc(#loc91)
        %314 = arith.andi %312, %313 : tensor<16x128xi1> loc(#loc91)
        %315 = tt.splat %arg4 : !tt.ptr<bf16> -> tensor<16x128x!tt.ptr<bf16>> loc(#loc92)
        %316 = tt.addptr %315, %138 : tensor<16x128x!tt.ptr<bf16>>, tensor<16x128xi32> loc(#loc92)
        %317 = tt.load %316, %314, %cst_4 : tensor<16x128x!tt.ptr<bf16>> loc(#loc93)
        scf.yield %317 : tensor<16x128xbf16> loc(#loc93)
      } else {
        %308 = tt.splat %arg4 : !tt.ptr<bf16> -> tensor<16x128x!tt.ptr<bf16>> loc(#loc94)
        %309 = tt.addptr %308, %138 : tensor<16x128x!tt.ptr<bf16>>, tensor<16x128xi32> loc(#loc94)
        %310 = tt.load %309 : tensor<16x128x!tt.ptr<bf16>> loc(#loc95)
        scf.yield %310 : tensor<16x128xbf16> loc(#loc95)
      } loc(#loc88)
      %160 = arith.truncf %152 : tensor<128x16xf32> to tensor<128x16xbf16> loc(#loc96)
      %161 = tt.dot %160, %159, %158, inputPrecision = tf32 : tensor<128x16xbf16> * tensor<16x128xbf16> -> tensor<128x128xf32> loc(#loc97)
      %162 = arith.mulf %arg28, %155 : tensor<128xf32> loc(#loc98)
      %163 = arith.addf %162, %153 : tensor<128xf32> loc(#loc99)
      %c1_i32_18 = arith.constant 1 : i32 loc(#loc48)
      %164 = arith.muli %c16_i32, %c1_i32_18 : i32 loc(#loc48)
      %165 = arith.addi %arg26, %164 : i32 loc(#loc48)
      %166 = arith.divsi %165, %c16_i32 : i32 loc(#loc49)
      %167 = tt.addptr %42, %166 : !tt.ptr<i32>, i32 loc(#loc50)
      %168 = tt.load %167 : !tt.ptr<i32> loc(#loc51)
      %169 = arith.muli %168, %arg20 : i32 loc(#loc52)
      %170 = arith.addi %169, %43 : i32 loc(#loc53)
      %171 = tt.splat %170 : i32 -> tensor<128x1xi32> loc(#loc54)
      %172 = arith.addi %171, %47 : tensor<128x1xi32> loc(#loc54)
      %173 = tt.splat %165 : i32 -> tensor<1x16xi32> loc(#loc55)
      %174 = arith.addi %173, %48 : tensor<1x16xi32> loc(#loc55)
      %175 = arith.remsi %174, %cst_10 : tensor<1x16xi32> loc(#loc56)
      %176 = arith.muli %175, %cst_9 : tensor<1x16xi32> loc(#loc57)
      %177 = tt.broadcast %172 : tensor<128x1xi32> -> tensor<128x16xi32> loc(#loc58)
      %178 = tt.broadcast %176 : tensor<1x16xi32> -> tensor<128x16xi32> loc(#loc58)
      %179 = arith.addi %177, %178 : tensor<128x16xi32> loc(#loc58)
      %180 = arith.addi %179, %50 : tensor<128x16xi32> loc(#loc41)
      %181 = arith.muli %168, %arg23 : i32 loc(#loc59)
      %182 = arith.addi %181, %51 : i32 loc(#loc60)
      %183 = tt.splat %182 : i32 -> tensor<1x128xi32> loc(#loc61)
      %184 = arith.addi %183, %53 : tensor<1x128xi32> loc(#loc61)
      %185 = tt.broadcast %184 : tensor<1x128xi32> -> tensor<16x128xi32> loc(#loc45)
      %186 = arith.addi %185, %55 : tensor<16x128xi32> loc(#loc45)
      %187 = arith.addi %165, %c16_i32 : i32 loc(#loc62)
      %188 = arith.cmpi sgt, %187, %11 : i32 loc(#loc63)
      %189 = scf.if %188 -> (tensor<128x16xbf16>) {
        %308 = tt.expand_dims %32 {axis = 1 : i32} : tensor<128xi1> -> tensor<128x1xi1> loc(#loc65)
        %309 = tt.splat %11 : i32 -> tensor<1x16xi32> loc(#loc66)
        %310 = arith.cmpi slt, %174, %309 : tensor<1x16xi32> loc(#loc66)
        %311 = tt.broadcast %308 : tensor<128x1xi1> -> tensor<128x16xi1> loc(#loc67)
        %312 = tt.broadcast %310 : tensor<1x16xi1> -> tensor<128x16xi1> loc(#loc67)
        %313 = arith.andi %311, %312 : tensor<128x16xi1> loc(#loc67)
        %314 = tt.splat %arg3 : !tt.ptr<bf16> -> tensor<128x16x!tt.ptr<bf16>> loc(#loc68)
        %315 = tt.addptr %314, %180 : tensor<128x16x!tt.ptr<bf16>>, tensor<128x16xi32> loc(#loc68)
        %316 = tt.load %315, %313, %cst_5 : tensor<128x16x!tt.ptr<bf16>> loc(#loc69)
        scf.yield %316 : tensor<128x16xbf16> loc(#loc69)
      } else {
        %308 = tt.splat %arg3 : !tt.ptr<bf16> -> tensor<128x16x!tt.ptr<bf16>> loc(#loc70)
        %309 = tt.addptr %308, %180 : tensor<128x16x!tt.ptr<bf16>>, tensor<128x16xi32> loc(#loc70)
        %310 = tt.load %309 : tensor<128x16x!tt.ptr<bf16>> loc(#loc71)
        scf.yield %310 : tensor<128x16xbf16> loc(#loc71)
      } loc(#loc64)
      %190 = tt.dot %41, %189, %cst_0, inputPrecision = tf32 : tensor<128x128xbf16> * tensor<128x16xbf16> -> tensor<128x16xf32> loc(#loc72)
      %191 = arith.cmpi slt, %174, %56 : tensor<1x16xi32> loc(#loc46)
      %192 = tt.broadcast %191 : tensor<1x16xi1> -> tensor<128x16xi1> loc(#loc73)
      %193 = arith.select %192, %190, %cst_8 : tensor<128x16xi1>, tensor<128x16xf32> loc(#loc73)
      %194 = arith.mulf %193, %57 : tensor<128x16xf32> loc(#loc47)
      %195 = "tt.reduce"(%194) <{axis = 1 : i32}> ({
      ^bb0(%arg30: f32 loc(callsite(#loc1 at #loc75)), %arg31: f32 loc(callsite(#loc1 at #loc75))):
        %308 = arith.maxnumf %arg30, %arg31 : f32 loc(#loc172)
        tt.reduce.return %308 : f32 loc(#loc162)
      }) : (tensor<128x16xf32>) -> tensor<128xf32> loc(#loc162)
      %196 = arith.maxnumf %148, %195 : tensor<128xf32> loc(#loc77)
      %197 = tt.expand_dims %196 {axis = 1 : i32} : tensor<128xf32> -> tensor<128x1xf32> loc(#loc78)
      %198 = tt.broadcast %197 : tensor<128x1xf32> -> tensor<128x16xf32> loc(#loc79)
      %199 = arith.subf %194, %198 : tensor<128x16xf32> loc(#loc79)
      %200 = math.exp %199 : tensor<128x16xf32> loc(#loc80)
      %201 = "tt.reduce"(%200) <{axis = 1 : i32}> ({
      ^bb0(%arg30: f32 loc(callsite(#loc1 at #loc82)), %arg31: f32 loc(callsite(#loc1 at #loc82))):
        %308 = arith.addf %arg30, %arg31 : f32 loc(#loc173)
        tt.reduce.return %308 : f32 loc(#loc165)
      }) : (tensor<128x16xf32>) -> tensor<128xf32> loc(#loc165)
      %202 = arith.subf %148, %196 : tensor<128xf32> loc(#loc84)
      %203 = math.exp %202 : tensor<128xf32> loc(#loc85)
      %204 = tt.expand_dims %203 {axis = 1 : i32} : tensor<128xf32> -> tensor<128x1xf32> loc(#loc86)
      %205 = tt.broadcast %204 : tensor<128x1xf32> -> tensor<128x128xf32> loc(#loc87)
      %206 = arith.mulf %161, %205 : tensor<128x128xf32> loc(#loc87)
      %207 = scf.if %188 -> (tensor<16x128xbf16>) {
        %308 = tt.splat %165 : i32 -> tensor<16x1xi32> loc(#loc89)
        %309 = arith.addi %308, %54 : tensor<16x1xi32> loc(#loc89)
        %310 = tt.splat %11 : i32 -> tensor<16x1xi32> loc(#loc90)
        %311 = arith.cmpi slt, %309, %310 : tensor<16x1xi32> loc(#loc90)
        %312 = tt.broadcast %33 : tensor<1x128xi1> -> tensor<16x128xi1> loc(#loc91)
        %313 = tt.broadcast %311 : tensor<16x1xi1> -> tensor<16x128xi1> loc(#loc91)
        %314 = arith.andi %312, %313 : tensor<16x128xi1> loc(#loc91)
        %315 = tt.splat %arg4 : !tt.ptr<bf16> -> tensor<16x128x!tt.ptr<bf16>> loc(#loc92)
        %316 = tt.addptr %315, %186 : tensor<16x128x!tt.ptr<bf16>>, tensor<16x128xi32> loc(#loc92)
        %317 = tt.load %316, %314, %cst_4 : tensor<16x128x!tt.ptr<bf16>> loc(#loc93)
        scf.yield %317 : tensor<16x128xbf16> loc(#loc93)
      } else {
        %308 = tt.splat %arg4 : !tt.ptr<bf16> -> tensor<16x128x!tt.ptr<bf16>> loc(#loc94)
        %309 = tt.addptr %308, %186 : tensor<16x128x!tt.ptr<bf16>>, tensor<16x128xi32> loc(#loc94)
        %310 = tt.load %309 : tensor<16x128x!tt.ptr<bf16>> loc(#loc95)
        scf.yield %310 : tensor<16x128xbf16> loc(#loc95)
      } loc(#loc88)
      %208 = arith.truncf %200 : tensor<128x16xf32> to tensor<128x16xbf16> loc(#loc96)
      %209 = tt.dot %208, %207, %206, inputPrecision = tf32 : tensor<128x16xbf16> * tensor<16x128xbf16> -> tensor<128x128xf32> loc(#loc97)
      %210 = arith.mulf %163, %203 : tensor<128xf32> loc(#loc98)
      %211 = arith.addf %210, %201 : tensor<128xf32> loc(#loc99)
      %c2_i32 = arith.constant 2 : i32 loc(#loc48)
      %212 = arith.muli %c16_i32, %c2_i32 : i32 loc(#loc48)
      %213 = arith.addi %arg26, %212 : i32 loc(#loc48)
      %214 = arith.divsi %213, %c16_i32 : i32 loc(#loc49)
      %215 = tt.addptr %42, %214 : !tt.ptr<i32>, i32 loc(#loc50)
      %216 = tt.load %215 : !tt.ptr<i32> loc(#loc51)
      %217 = arith.muli %216, %arg20 : i32 loc(#loc52)
      %218 = arith.addi %217, %43 : i32 loc(#loc53)
      %219 = tt.splat %218 : i32 -> tensor<128x1xi32> loc(#loc54)
      %220 = arith.addi %219, %47 : tensor<128x1xi32> loc(#loc54)
      %221 = tt.splat %213 : i32 -> tensor<1x16xi32> loc(#loc55)
      %222 = arith.addi %221, %48 : tensor<1x16xi32> loc(#loc55)
      %223 = arith.remsi %222, %cst_10 : tensor<1x16xi32> loc(#loc56)
      %224 = arith.muli %223, %cst_9 : tensor<1x16xi32> loc(#loc57)
      %225 = tt.broadcast %220 : tensor<128x1xi32> -> tensor<128x16xi32> loc(#loc58)
      %226 = tt.broadcast %224 : tensor<1x16xi32> -> tensor<128x16xi32> loc(#loc58)
      %227 = arith.addi %225, %226 : tensor<128x16xi32> loc(#loc58)
      %228 = arith.addi %227, %50 : tensor<128x16xi32> loc(#loc41)
      %229 = arith.muli %216, %arg23 : i32 loc(#loc59)
      %230 = arith.addi %229, %51 : i32 loc(#loc60)
      %231 = tt.splat %230 : i32 -> tensor<1x128xi32> loc(#loc61)
      %232 = arith.addi %231, %53 : tensor<1x128xi32> loc(#loc61)
      %233 = tt.broadcast %232 : tensor<1x128xi32> -> tensor<16x128xi32> loc(#loc45)
      %234 = arith.addi %233, %55 : tensor<16x128xi32> loc(#loc45)
      %235 = arith.addi %213, %c16_i32 : i32 loc(#loc62)
      %236 = arith.cmpi sgt, %235, %11 : i32 loc(#loc63)
      %237 = scf.if %236 -> (tensor<128x16xbf16>) {
        %308 = tt.expand_dims %32 {axis = 1 : i32} : tensor<128xi1> -> tensor<128x1xi1> loc(#loc65)
        %309 = tt.splat %11 : i32 -> tensor<1x16xi32> loc(#loc66)
        %310 = arith.cmpi slt, %222, %309 : tensor<1x16xi32> loc(#loc66)
        %311 = tt.broadcast %308 : tensor<128x1xi1> -> tensor<128x16xi1> loc(#loc67)
        %312 = tt.broadcast %310 : tensor<1x16xi1> -> tensor<128x16xi1> loc(#loc67)
        %313 = arith.andi %311, %312 : tensor<128x16xi1> loc(#loc67)
        %314 = tt.splat %arg3 : !tt.ptr<bf16> -> tensor<128x16x!tt.ptr<bf16>> loc(#loc68)
        %315 = tt.addptr %314, %228 : tensor<128x16x!tt.ptr<bf16>>, tensor<128x16xi32> loc(#loc68)
        %316 = tt.load %315, %313, %cst_5 : tensor<128x16x!tt.ptr<bf16>> loc(#loc69)
        scf.yield %316 : tensor<128x16xbf16> loc(#loc69)
      } else {
        %308 = tt.splat %arg3 : !tt.ptr<bf16> -> tensor<128x16x!tt.ptr<bf16>> loc(#loc70)
        %309 = tt.addptr %308, %228 : tensor<128x16x!tt.ptr<bf16>>, tensor<128x16xi32> loc(#loc70)
        %310 = tt.load %309 : tensor<128x16x!tt.ptr<bf16>> loc(#loc71)
        scf.yield %310 : tensor<128x16xbf16> loc(#loc71)
      } loc(#loc64)
      %238 = tt.dot %41, %237, %cst_0, inputPrecision = tf32 : tensor<128x128xbf16> * tensor<128x16xbf16> -> tensor<128x16xf32> loc(#loc72)
      %239 = arith.cmpi slt, %222, %56 : tensor<1x16xi32> loc(#loc46)
      %240 = tt.broadcast %239 : tensor<1x16xi1> -> tensor<128x16xi1> loc(#loc73)
      %241 = arith.select %240, %238, %cst_8 : tensor<128x16xi1>, tensor<128x16xf32> loc(#loc73)
      %242 = arith.mulf %241, %57 : tensor<128x16xf32> loc(#loc47)
      %243 = "tt.reduce"(%242) <{axis = 1 : i32}> ({
      ^bb0(%arg30: f32 loc(callsite(#loc1 at #loc75)), %arg31: f32 loc(callsite(#loc1 at #loc75))):
        %308 = arith.maxnumf %arg30, %arg31 : f32 loc(#loc172)
        tt.reduce.return %308 : f32 loc(#loc162)
      }) : (tensor<128x16xf32>) -> tensor<128xf32> loc(#loc162)
      %244 = arith.maxnumf %196, %243 : tensor<128xf32> loc(#loc77)
      %245 = tt.expand_dims %244 {axis = 1 : i32} : tensor<128xf32> -> tensor<128x1xf32> loc(#loc78)
      %246 = tt.broadcast %245 : tensor<128x1xf32> -> tensor<128x16xf32> loc(#loc79)
      %247 = arith.subf %242, %246 : tensor<128x16xf32> loc(#loc79)
      %248 = math.exp %247 : tensor<128x16xf32> loc(#loc80)
      %249 = "tt.reduce"(%248) <{axis = 1 : i32}> ({
      ^bb0(%arg30: f32 loc(callsite(#loc1 at #loc82)), %arg31: f32 loc(callsite(#loc1 at #loc82))):
        %308 = arith.addf %arg30, %arg31 : f32 loc(#loc173)
        tt.reduce.return %308 : f32 loc(#loc165)
      }) : (tensor<128x16xf32>) -> tensor<128xf32> loc(#loc165)
      %250 = arith.subf %196, %244 : tensor<128xf32> loc(#loc84)
      %251 = math.exp %250 : tensor<128xf32> loc(#loc85)
      %252 = tt.expand_dims %251 {axis = 1 : i32} : tensor<128xf32> -> tensor<128x1xf32> loc(#loc86)
      %253 = tt.broadcast %252 : tensor<128x1xf32> -> tensor<128x128xf32> loc(#loc87)
      %254 = arith.mulf %209, %253 : tensor<128x128xf32> loc(#loc87)
      %255 = scf.if %236 -> (tensor<16x128xbf16>) {
        %308 = tt.splat %213 : i32 -> tensor<16x1xi32> loc(#loc89)
        %309 = arith.addi %308, %54 : tensor<16x1xi32> loc(#loc89)
        %310 = tt.splat %11 : i32 -> tensor<16x1xi32> loc(#loc90)
        %311 = arith.cmpi slt, %309, %310 : tensor<16x1xi32> loc(#loc90)
        %312 = tt.broadcast %33 : tensor<1x128xi1> -> tensor<16x128xi1> loc(#loc91)
        %313 = tt.broadcast %311 : tensor<16x1xi1> -> tensor<16x128xi1> loc(#loc91)
        %314 = arith.andi %312, %313 : tensor<16x128xi1> loc(#loc91)
        %315 = tt.splat %arg4 : !tt.ptr<bf16> -> tensor<16x128x!tt.ptr<bf16>> loc(#loc92)
        %316 = tt.addptr %315, %234 : tensor<16x128x!tt.ptr<bf16>>, tensor<16x128xi32> loc(#loc92)
        %317 = tt.load %316, %314, %cst_4 : tensor<16x128x!tt.ptr<bf16>> loc(#loc93)
        scf.yield %317 : tensor<16x128xbf16> loc(#loc93)
      } else {
        %308 = tt.splat %arg4 : !tt.ptr<bf16> -> tensor<16x128x!tt.ptr<bf16>> loc(#loc94)
        %309 = tt.addptr %308, %234 : tensor<16x128x!tt.ptr<bf16>>, tensor<16x128xi32> loc(#loc94)
        %310 = tt.load %309 : tensor<16x128x!tt.ptr<bf16>> loc(#loc95)
        scf.yield %310 : tensor<16x128xbf16> loc(#loc95)
      } loc(#loc88)
      %256 = arith.truncf %248 : tensor<128x16xf32> to tensor<128x16xbf16> loc(#loc96)
      %257 = tt.dot %256, %255, %254, inputPrecision = tf32 : tensor<128x16xbf16> * tensor<16x128xbf16> -> tensor<128x128xf32> loc(#loc97)
      %258 = arith.mulf %211, %251 : tensor<128xf32> loc(#loc98)
      %259 = arith.addf %258, %249 : tensor<128xf32> loc(#loc99)
      %c3_i32 = arith.constant 3 : i32 loc(#loc48)
      %260 = arith.muli %c16_i32, %c3_i32 : i32 loc(#loc48)
      %261 = arith.addi %arg26, %260 : i32 loc(#loc48)
      %262 = arith.divsi %261, %c16_i32 : i32 loc(#loc49)
      %263 = tt.addptr %42, %262 : !tt.ptr<i32>, i32 loc(#loc50)
      %264 = tt.load %263 : !tt.ptr<i32> loc(#loc51)
      %265 = arith.muli %264, %arg20 : i32 loc(#loc52)
      %266 = arith.addi %265, %43 : i32 loc(#loc53)
      %267 = tt.splat %266 : i32 -> tensor<128x1xi32> loc(#loc54)
      %268 = arith.addi %267, %47 : tensor<128x1xi32> loc(#loc54)
      %269 = tt.splat %261 : i32 -> tensor<1x16xi32> loc(#loc55)
      %270 = arith.addi %269, %48 : tensor<1x16xi32> loc(#loc55)
      %271 = arith.remsi %270, %cst_10 : tensor<1x16xi32> loc(#loc56)
      %272 = arith.muli %271, %cst_9 : tensor<1x16xi32> loc(#loc57)
      %273 = tt.broadcast %268 : tensor<128x1xi32> -> tensor<128x16xi32> loc(#loc58)
      %274 = tt.broadcast %272 : tensor<1x16xi32> -> tensor<128x16xi32> loc(#loc58)
      %275 = arith.addi %273, %274 : tensor<128x16xi32> loc(#loc58)
      %276 = arith.addi %275, %50 : tensor<128x16xi32> loc(#loc41)
      %277 = arith.muli %264, %arg23 : i32 loc(#loc59)
      %278 = arith.addi %277, %51 : i32 loc(#loc60)
      %279 = tt.splat %278 : i32 -> tensor<1x128xi32> loc(#loc61)
      %280 = arith.addi %279, %53 : tensor<1x128xi32> loc(#loc61)
      %281 = tt.broadcast %280 : tensor<1x128xi32> -> tensor<16x128xi32> loc(#loc45)
      %282 = arith.addi %281, %55 : tensor<16x128xi32> loc(#loc45)
      %283 = arith.addi %261, %c16_i32 : i32 loc(#loc62)
      %284 = arith.cmpi sgt, %283, %11 : i32 loc(#loc63)
      %285 = scf.if %284 -> (tensor<128x16xbf16>) {
        %308 = tt.expand_dims %32 {axis = 1 : i32} : tensor<128xi1> -> tensor<128x1xi1> loc(#loc65)
        %309 = tt.splat %11 : i32 -> tensor<1x16xi32> loc(#loc66)
        %310 = arith.cmpi slt, %270, %309 : tensor<1x16xi32> loc(#loc66)
        %311 = tt.broadcast %308 : tensor<128x1xi1> -> tensor<128x16xi1> loc(#loc67)
        %312 = tt.broadcast %310 : tensor<1x16xi1> -> tensor<128x16xi1> loc(#loc67)
        %313 = arith.andi %311, %312 : tensor<128x16xi1> loc(#loc67)
        %314 = tt.splat %arg3 : !tt.ptr<bf16> -> tensor<128x16x!tt.ptr<bf16>> loc(#loc68)
        %315 = tt.addptr %314, %276 : tensor<128x16x!tt.ptr<bf16>>, tensor<128x16xi32> loc(#loc68)
        %316 = tt.load %315, %313, %cst_5 : tensor<128x16x!tt.ptr<bf16>> loc(#loc69)
        scf.yield %316 : tensor<128x16xbf16> loc(#loc69)
      } else {
        %308 = tt.splat %arg3 : !tt.ptr<bf16> -> tensor<128x16x!tt.ptr<bf16>> loc(#loc70)
        %309 = tt.addptr %308, %276 : tensor<128x16x!tt.ptr<bf16>>, tensor<128x16xi32> loc(#loc70)
        %310 = tt.load %309 : tensor<128x16x!tt.ptr<bf16>> loc(#loc71)
        scf.yield %310 : tensor<128x16xbf16> loc(#loc71)
      } loc(#loc64)
      %286 = tt.dot %41, %285, %cst_0, inputPrecision = tf32 : tensor<128x128xbf16> * tensor<128x16xbf16> -> tensor<128x16xf32> loc(#loc72)
      %287 = arith.cmpi slt, %270, %56 : tensor<1x16xi32> loc(#loc46)
      %288 = tt.broadcast %287 : tensor<1x16xi1> -> tensor<128x16xi1> loc(#loc73)
      %289 = arith.select %288, %286, %cst_8 : tensor<128x16xi1>, tensor<128x16xf32> loc(#loc73)
      %290 = arith.mulf %289, %57 : tensor<128x16xf32> loc(#loc47)
      %291 = "tt.reduce"(%290) <{axis = 1 : i32}> ({
      ^bb0(%arg30: f32 loc(callsite(#loc1 at #loc75)), %arg31: f32 loc(callsite(#loc1 at #loc75))):
        %308 = arith.maxnumf %arg30, %arg31 : f32 loc(#loc172)
        tt.reduce.return %308 : f32 loc(#loc162)
      }) : (tensor<128x16xf32>) -> tensor<128xf32> loc(#loc162)
      %292 = arith.maxnumf %244, %291 : tensor<128xf32> loc(#loc77)
      %293 = tt.expand_dims %292 {axis = 1 : i32} : tensor<128xf32> -> tensor<128x1xf32> loc(#loc78)
      %294 = tt.broadcast %293 : tensor<128x1xf32> -> tensor<128x16xf32> loc(#loc79)
      %295 = arith.subf %290, %294 : tensor<128x16xf32> loc(#loc79)
      %296 = math.exp %295 : tensor<128x16xf32> loc(#loc80)
      %297 = "tt.reduce"(%296) <{axis = 1 : i32}> ({
      ^bb0(%arg30: f32 loc(callsite(#loc1 at #loc82)), %arg31: f32 loc(callsite(#loc1 at #loc82))):
        %308 = arith.addf %arg30, %arg31 : f32 loc(#loc173)
        tt.reduce.return %308 : f32 loc(#loc165)
      }) : (tensor<128x16xf32>) -> tensor<128xf32> loc(#loc165)
      %298 = arith.subf %244, %292 : tensor<128xf32> loc(#loc84)
      %299 = math.exp %298 : tensor<128xf32> loc(#loc85)
      %300 = tt.expand_dims %299 {axis = 1 : i32} : tensor<128xf32> -> tensor<128x1xf32> loc(#loc86)
      %301 = tt.broadcast %300 : tensor<128x1xf32> -> tensor<128x128xf32> loc(#loc87)
      %302 = arith.mulf %257, %301 : tensor<128x128xf32> loc(#loc87)
      %303 = scf.if %284 -> (tensor<16x128xbf16>) {
        %308 = tt.splat %261 : i32 -> tensor<16x1xi32> loc(#loc89)
        %309 = arith.addi %308, %54 : tensor<16x1xi32> loc(#loc89)
        %310 = tt.splat %11 : i32 -> tensor<16x1xi32> loc(#loc90)
        %311 = arith.cmpi slt, %309, %310 : tensor<16x1xi32> loc(#loc90)
        %312 = tt.broadcast %33 : tensor<1x128xi1> -> tensor<16x128xi1> loc(#loc91)
        %313 = tt.broadcast %311 : tensor<16x1xi1> -> tensor<16x128xi1> loc(#loc91)
        %314 = arith.andi %312, %313 : tensor<16x128xi1> loc(#loc91)
        %315 = tt.splat %arg4 : !tt.ptr<bf16> -> tensor<16x128x!tt.ptr<bf16>> loc(#loc92)
        %316 = tt.addptr %315, %282 : tensor<16x128x!tt.ptr<bf16>>, tensor<16x128xi32> loc(#loc92)
        %317 = tt.load %316, %314, %cst_4 : tensor<16x128x!tt.ptr<bf16>> loc(#loc93)
        scf.yield %317 : tensor<16x128xbf16> loc(#loc93)
      } else {
        %308 = tt.splat %arg4 : !tt.ptr<bf16> -> tensor<16x128x!tt.ptr<bf16>> loc(#loc94)
        %309 = tt.addptr %308, %282 : tensor<16x128x!tt.ptr<bf16>>, tensor<16x128xi32> loc(#loc94)
        %310 = tt.load %309 : tensor<16x128x!tt.ptr<bf16>> loc(#loc95)
        scf.yield %310 : tensor<16x128xbf16> loc(#loc95)
      } loc(#loc88)
      %304 = arith.truncf %296 : tensor<128x16xf32> to tensor<128x16xbf16> loc(#loc96)
      %305 = tt.dot %304, %303, %302, inputPrecision = tf32 : tensor<128x16xbf16> * tensor<16x128xbf16> -> tensor<128x128xf32> loc(#loc97)
      %306 = arith.mulf %259, %299 : tensor<128xf32> loc(#loc98)
      %307 = arith.addf %306, %297 : tensor<128xf32> loc(#loc99)
      scf.yield %305, %307, %292 : tensor<128x128xf32>, tensor<128xf32>, tensor<128xf32> loc(#loc100)
    } {tt.divisibility_arg1 = dense<16> : tensor<1xi32>} loc(#loc48)
    %68:3 = scf.for %arg26 = %65 to %11 step %c16_i32 iter_args(%arg27 = %67#0, %arg28 = %67#1, %arg29 = %67#2) -> (tensor<128x128xf32>, tensor<128xf32>, tensor<128xf32>)  : i32 {
      %118 = arith.divsi %arg26, %c16_i32 : i32 loc(#loc49)
      %119 = tt.addptr %42, %118 : !tt.ptr<i32>, i32 loc(#loc50)
      %120 = tt.load %119 : !tt.ptr<i32> loc(#loc51)
      %121 = arith.muli %120, %arg20 : i32 loc(#loc52)
      %122 = arith.addi %121, %43 : i32 loc(#loc53)
      %123 = tt.splat %122 : i32 -> tensor<128x1xi32> loc(#loc54)
      %124 = arith.addi %123, %47 : tensor<128x1xi32> loc(#loc54)
      %125 = tt.splat %arg26 : i32 -> tensor<1x16xi32> loc(#loc55)
      %126 = arith.addi %125, %48 : tensor<1x16xi32> loc(#loc55)
      %127 = arith.remsi %126, %cst_10 : tensor<1x16xi32> loc(#loc56)
      %128 = arith.muli %127, %cst_9 : tensor<1x16xi32> loc(#loc57)
      %129 = tt.broadcast %124 : tensor<128x1xi32> -> tensor<128x16xi32> loc(#loc58)
      %130 = tt.broadcast %128 : tensor<1x16xi32> -> tensor<128x16xi32> loc(#loc58)
      %131 = arith.addi %129, %130 : tensor<128x16xi32> loc(#loc58)
      %132 = arith.addi %131, %50 : tensor<128x16xi32> loc(#loc41)
      %133 = arith.muli %120, %arg23 : i32 loc(#loc59)
      %134 = arith.addi %133, %51 : i32 loc(#loc60)
      %135 = tt.splat %134 : i32 -> tensor<1x128xi32> loc(#loc61)
      %136 = arith.addi %135, %53 : tensor<1x128xi32> loc(#loc61)
      %137 = tt.broadcast %136 : tensor<1x128xi32> -> tensor<16x128xi32> loc(#loc45)
      %138 = arith.addi %137, %55 : tensor<16x128xi32> loc(#loc45)
      %139 = arith.addi %arg26, %c16_i32 : i32 loc(#loc62)
      %140 = arith.cmpi sgt, %139, %11 : i32 loc(#loc63)
      %141 = scf.if %140 -> (tensor<128x16xbf16>) {
        %164 = tt.expand_dims %32 {axis = 1 : i32} : tensor<128xi1> -> tensor<128x1xi1> loc(#loc65)
        %165 = tt.splat %11 : i32 -> tensor<1x16xi32> loc(#loc66)
        %166 = arith.cmpi slt, %126, %165 : tensor<1x16xi32> loc(#loc66)
        %167 = tt.broadcast %164 : tensor<128x1xi1> -> tensor<128x16xi1> loc(#loc67)
        %168 = tt.broadcast %166 : tensor<1x16xi1> -> tensor<128x16xi1> loc(#loc67)
        %169 = arith.andi %167, %168 : tensor<128x16xi1> loc(#loc67)
        %170 = tt.splat %arg3 : !tt.ptr<bf16> -> tensor<128x16x!tt.ptr<bf16>> loc(#loc68)
        %171 = tt.addptr %170, %132 : tensor<128x16x!tt.ptr<bf16>>, tensor<128x16xi32> loc(#loc68)
        %172 = tt.load %171, %169, %cst_5 : tensor<128x16x!tt.ptr<bf16>> loc(#loc69)
        scf.yield %172 : tensor<128x16xbf16> loc(#loc69)
      } else {
        %164 = tt.splat %arg3 : !tt.ptr<bf16> -> tensor<128x16x!tt.ptr<bf16>> loc(#loc70)
        %165 = tt.addptr %164, %132 : tensor<128x16x!tt.ptr<bf16>>, tensor<128x16xi32> loc(#loc70)
        %166 = tt.load %165 : tensor<128x16x!tt.ptr<bf16>> loc(#loc71)
        scf.yield %166 : tensor<128x16xbf16> loc(#loc71)
      } loc(#loc64)
      %142 = tt.dot %41, %141, %cst_0, inputPrecision = tf32 : tensor<128x128xbf16> * tensor<128x16xbf16> -> tensor<128x16xf32> loc(#loc72)
      %143 = arith.cmpi slt, %126, %56 : tensor<1x16xi32> loc(#loc46)
      %144 = tt.broadcast %143 : tensor<1x16xi1> -> tensor<128x16xi1> loc(#loc73)
      %145 = arith.select %144, %142, %cst_8 : tensor<128x16xi1>, tensor<128x16xf32> loc(#loc73)
      %146 = arith.mulf %145, %57 : tensor<128x16xf32> loc(#loc47)
      %147 = "tt.reduce"(%146) <{axis = 1 : i32}> ({
      ^bb0(%arg30: f32 loc(callsite(#loc1 at #loc75)), %arg31: f32 loc(callsite(#loc1 at #loc75))):
        %164 = arith.maxnumf %arg30, %arg31 : f32 loc(#loc172)
        tt.reduce.return %164 : f32 loc(#loc162)
      }) : (tensor<128x16xf32>) -> tensor<128xf32> loc(#loc162)
      %148 = arith.maxnumf %arg29, %147 : tensor<128xf32> loc(#loc77)
      %149 = tt.expand_dims %148 {axis = 1 : i32} : tensor<128xf32> -> tensor<128x1xf32> loc(#loc78)
      %150 = tt.broadcast %149 : tensor<128x1xf32> -> tensor<128x16xf32> loc(#loc79)
      %151 = arith.subf %146, %150 : tensor<128x16xf32> loc(#loc79)
      %152 = math.exp %151 : tensor<128x16xf32> loc(#loc80)
      %153 = "tt.reduce"(%152) <{axis = 1 : i32}> ({
      ^bb0(%arg30: f32 loc(callsite(#loc1 at #loc82)), %arg31: f32 loc(callsite(#loc1 at #loc82))):
        %164 = arith.addf %arg30, %arg31 : f32 loc(#loc173)
        tt.reduce.return %164 : f32 loc(#loc165)
      }) : (tensor<128x16xf32>) -> tensor<128xf32> loc(#loc165)
      %154 = arith.subf %arg29, %148 : tensor<128xf32> loc(#loc84)
      %155 = math.exp %154 : tensor<128xf32> loc(#loc85)
      %156 = tt.expand_dims %155 {axis = 1 : i32} : tensor<128xf32> -> tensor<128x1xf32> loc(#loc86)
      %157 = tt.broadcast %156 : tensor<128x1xf32> -> tensor<128x128xf32> loc(#loc87)
      %158 = arith.mulf %arg27, %157 : tensor<128x128xf32> loc(#loc87)
      %159 = scf.if %140 -> (tensor<16x128xbf16>) {
        %164 = tt.splat %arg26 : i32 -> tensor<16x1xi32> loc(#loc89)
        %165 = arith.addi %164, %54 : tensor<16x1xi32> loc(#loc89)
        %166 = tt.splat %11 : i32 -> tensor<16x1xi32> loc(#loc90)
        %167 = arith.cmpi slt, %165, %166 : tensor<16x1xi32> loc(#loc90)
        %168 = tt.broadcast %33 : tensor<1x128xi1> -> tensor<16x128xi1> loc(#loc91)
        %169 = tt.broadcast %167 : tensor<16x1xi1> -> tensor<16x128xi1> loc(#loc91)
        %170 = arith.andi %168, %169 : tensor<16x128xi1> loc(#loc91)
        %171 = tt.splat %arg4 : !tt.ptr<bf16> -> tensor<16x128x!tt.ptr<bf16>> loc(#loc92)
        %172 = tt.addptr %171, %138 : tensor<16x128x!tt.ptr<bf16>>, tensor<16x128xi32> loc(#loc92)
        %173 = tt.load %172, %170, %cst_4 : tensor<16x128x!tt.ptr<bf16>> loc(#loc93)
        scf.yield %173 : tensor<16x128xbf16> loc(#loc93)
      } else {
        %164 = tt.splat %arg4 : !tt.ptr<bf16> -> tensor<16x128x!tt.ptr<bf16>> loc(#loc94)
        %165 = tt.addptr %164, %138 : tensor<16x128x!tt.ptr<bf16>>, tensor<16x128xi32> loc(#loc94)
        %166 = tt.load %165 : tensor<16x128x!tt.ptr<bf16>> loc(#loc95)
        scf.yield %166 : tensor<16x128xbf16> loc(#loc95)
      } loc(#loc88)
      %160 = arith.truncf %152 : tensor<128x16xf32> to tensor<128x16xbf16> loc(#loc96)
      %161 = tt.dot %160, %159, %158, inputPrecision = tf32 : tensor<128x16xbf16> * tensor<16x128xbf16> -> tensor<128x128xf32> loc(#loc97)
      %162 = arith.mulf %arg28, %155 : tensor<128xf32> loc(#loc98)
      %163 = arith.addf %162, %153 : tensor<128xf32> loc(#loc99)
      scf.yield %161, %163, %148 : tensor<128x128xf32>, tensor<128xf32>, tensor<128xf32> loc(#loc100)
    } {tt.divisibility_arg1 = dense<16> : tensor<1xi32>} loc(#loc48)
    %69 = tt.expand_dims %14 {axis = 0 : i32} : tensor<64xi32> -> tensor<1x64xi32> loc(#loc101)
    %70 = tt.splat %arg14 : i32 -> tensor<1x64xi32> loc(#loc102)
    %71 = arith.muli %69, %70 : tensor<1x64xi32> loc(#loc102)
    %72 = arith.muli %3, %arg15 : i32 loc(#loc103)
    %73 = tt.splat %72 : i32 -> tensor<1x64xi32> loc(#loc104)
    %74 = arith.addi %71, %73 : tensor<1x64xi32> loc(#loc104)
    %75 = tt.expand_dims %15 {axis = 1 : i32} : tensor<128xi32> -> tensor<128x1xi32> loc(#loc105)
    %76 = tt.broadcast %74 : tensor<1x64xi32> -> tensor<128x64xi32> loc(#loc106)
    %77 = tt.broadcast %75 : tensor<128x1xi32> -> tensor<128x64xi32> loc(#loc106)
    %78 = arith.addi %76, %77 : tensor<128x64xi32> loc(#loc106)
    %79 = tt.expand_dims %14 {axis = 1 : i32} : tensor<64xi32> -> tensor<64x1xi32> loc(#loc107)
    %80 = tt.splat %arg16 : i32 -> tensor<64x1xi32> loc(#loc108)
    %81 = arith.muli %79, %80 : tensor<64x1xi32> loc(#loc108)
    %82 = arith.muli %3, %arg17 : i32 loc(#loc109)
    %83 = tt.splat %82 : i32 -> tensor<64x1xi32> loc(#loc110)
    %84 = arith.addi %81, %83 : tensor<64x1xi32> loc(#loc110)
    %85 = tt.broadcast %84 : tensor<64x1xi32> -> tensor<64x128xi32> loc(#loc111)
    %86 = tt.broadcast %26 : tensor<1x128xi32> -> tensor<64x128xi32> loc(#loc111)
    %87 = arith.addi %85, %86 : tensor<64x128xi32> loc(#loc111)
    %88 = tt.splat %arg1 : !tt.ptr<bf16> -> tensor<128x64x!tt.ptr<bf16>> loc(#loc112)
    %89 = tt.addptr %88, %78 : tensor<128x64x!tt.ptr<bf16>>, tensor<128x64xi32> loc(#loc112)
    %90 = tt.splat %arg2 : !tt.ptr<bf16> -> tensor<64x128x!tt.ptr<bf16>> loc(#loc113)
    %91 = tt.addptr %90, %87 : tensor<64x128x!tt.ptr<bf16>>, tensor<64x128xi32> loc(#loc113)
    %92 = arith.cmpi slt, %12, %10 : i32 loc(#loc114)
    %93 = arith.extui %92 : i1 to i32 loc(#loc115)
    %94 = arith.addi %2, %c1_i32 : i32 loc(#loc116)
    %95 = arith.muli %93, %94 : i32 loc(#loc117)
    %96 = arith.muli %95, %c128_i32 : i32 loc(#loc118)
    %97 = tt.expand_dims %32 {axis = 1 : i32} : tensor<128xi1> -> tensor<128x1xi1> loc(#loc119)
    %98 = tt.splat %10 : i32 -> tensor<1x64xi32> loc(#loc120)
    %99 = tt.broadcast %97 : tensor<128x1xi1> -> tensor<128x64xi1> loc(#loc121)
    %100 = tt.splat %arg6 : f32 -> tensor<128x64xf32> loc(#loc122)
    %101 = tt.broadcast %18 : tensor<128x1xi32> -> tensor<128x64xi32> loc(#loc123)
    %102 = tt.splat %10 : i32 -> tensor<64x1xi32> loc(#loc124)
    %103 = tt.broadcast %33 : tensor<1x128xi1> -> tensor<64x128xi1> loc(#loc125)
    %104:3 = scf.for %arg26 = %c0_i32 to %96 step %c64_i32 iter_args(%arg27 = %68#0, %arg28 = %68#1, %arg29 = %68#2) -> (tensor<128x128xf32>, tensor<128xf32>, tensor<128xf32>)  : i32 {
      %118 = tt.splat %arg26 : i32 -> tensor<1x64xi32> loc(#loc127)
      %119 = arith.addi %118, %69 : tensor<1x64xi32> loc(#loc127)
      %120 = arith.cmpi slt, %119, %98 : tensor<1x64xi32> loc(#loc120)
      %121 = tt.broadcast %120 : tensor<1x64xi1> -> tensor<128x64xi1> loc(#loc121)
      %122 = arith.andi %99, %121 : tensor<128x64xi1> loc(#loc121)
      %123 = arith.addi %7, %arg26 : i32 loc(#loc128)
      %124 = arith.muli %123, %arg14 : i32 loc(#loc129)
      %125 = tt.splat %124 : i32 -> tensor<128x64xi32> loc(#loc130)
      %126 = tt.addptr %89, %125 : tensor<128x64x!tt.ptr<bf16>>, tensor<128x64xi32> loc(#loc130)
      %127 = tt.load %126, %122, %cst_3 : tensor<128x64x!tt.ptr<bf16>> loc(#loc131)
      %128 = tt.dot %41, %127, %cst, inputPrecision = tf32 : tensor<128x128xbf16> * tensor<128x64xbf16> -> tensor<128x64xf32> loc(#loc132)
      %129 = arith.mulf %128, %100 : tensor<128x64xf32> loc(#loc122)
      %130 = tt.broadcast %119 : tensor<1x64xi32> -> tensor<128x64xi32> loc(#loc123)
      %131 = arith.cmpi sge, %101, %130 : tensor<128x64xi32> loc(#loc123)
      %132 = arith.select %131, %129, %cst_7 : tensor<128x64xi1>, tensor<128x64xf32> loc(#loc133)
      %133 = "tt.reduce"(%132) <{axis = 1 : i32}> ({
      ^bb0(%arg30: f32 loc(callsite(#loc1 at #loc134)), %arg31: f32 loc(callsite(#loc1 at #loc134))):
        %158 = arith.maxnumf %arg30, %arg31 : f32 loc(#loc174)
        tt.reduce.return %158 : f32 loc(#loc168)
      }) : (tensor<128x64xf32>) -> tensor<128xf32> loc(#loc168)
      %134 = arith.maxnumf %arg29, %133 : tensor<128xf32> loc(#loc135)
      %135 = tt.expand_dims %134 {axis = 1 : i32} : tensor<128xf32> -> tensor<128x1xf32> loc(#loc136)
      %136 = tt.broadcast %135 : tensor<128x1xf32> -> tensor<128x64xf32> loc(#loc137)
      %137 = arith.subf %132, %136 : tensor<128x64xf32> loc(#loc137)
      %138 = math.exp %137 : tensor<128x64xf32> loc(#loc138)
      %139 = "tt.reduce"(%138) <{axis = 1 : i32}> ({
      ^bb0(%arg30: f32 loc(callsite(#loc1 at #loc139)), %arg31: f32 loc(callsite(#loc1 at #loc139))):
        %158 = arith.addf %arg30, %arg31 : f32 loc(#loc175)
        tt.reduce.return %158 : f32 loc(#loc170)
      }) : (tensor<128x64xf32>) -> tensor<128xf32> loc(#loc170)
      %140 = arith.subf %arg29, %134 : tensor<128xf32> loc(#loc140)
      %141 = math.exp %140 : tensor<128xf32> loc(#loc141)
      %142 = tt.expand_dims %141 {axis = 1 : i32} : tensor<128xf32> -> tensor<128x1xf32> loc(#loc142)
      %143 = tt.broadcast %142 : tensor<128x1xf32> -> tensor<128x128xf32> loc(#loc143)
      %144 = arith.mulf %arg27, %143 : tensor<128x128xf32> loc(#loc143)
      %145 = tt.splat %arg26 : i32 -> tensor<64x1xi32> loc(#loc144)
      %146 = arith.addi %145, %79 : tensor<64x1xi32> loc(#loc144)
      %147 = arith.cmpi slt, %146, %102 : tensor<64x1xi32> loc(#loc124)
      %148 = tt.broadcast %147 : tensor<64x1xi1> -> tensor<64x128xi1> loc(#loc125)
      %149 = arith.andi %103, %148 : tensor<64x128xi1> loc(#loc125)
      %150 = arith.muli %123, %arg16 : i32 loc(#loc145)
      %151 = tt.splat %150 : i32 -> tensor<64x128xi32> loc(#loc146)
      %152 = tt.addptr %91, %151 : tensor<64x128x!tt.ptr<bf16>>, tensor<64x128xi32> loc(#loc146)
      %153 = tt.load %152, %149, %cst_2 : tensor<64x128x!tt.ptr<bf16>> loc(#loc147)
      %154 = arith.truncf %138 : tensor<128x64xf32> to tensor<128x64xbf16> loc(#loc148)
      %155 = tt.dot %154, %153, %144, inputPrecision = tf32 : tensor<128x64xbf16> * tensor<64x128xbf16> -> tensor<128x128xf32> loc(#loc149)
      %156 = arith.mulf %arg28, %141 : tensor<128xf32> loc(#loc150)
      %157 = arith.addf %156, %139 : tensor<128xf32> loc(#loc151)
      scf.yield %155, %157, %134 : tensor<128x128xf32>, tensor<128xf32>, tensor<128xf32> loc(#loc152)
    } {tt.divisibility_arg1 = dense<64> : tensor<1xi32>, tt.loop_unroll_factor = 1 : i32} loc(#loc126)
    %105 = tt.expand_dims %104#1 {axis = 1 : i32} : tensor<128xf32> -> tensor<128x1xf32> loc(#loc153)
    %106 = tt.broadcast %105 : tensor<128x1xf32> -> tensor<128x128xf32> loc(#loc154)
    %107 = arith.divf %104#0, %106 : tensor<128x128xf32> loc(#loc154)
    %108 = tt.splat %arg18 : i32 -> tensor<128x1xi32> loc(#loc155)
    %109 = arith.muli %20, %108 : tensor<128x1xi32> loc(#loc155)
    %110 = arith.muli %1, %arg19 : i32 loc(#loc156)
    %111 = tt.splat %110 : i32 -> tensor<128x1xi32> loc(#loc157)
    %112 = arith.addi %109, %111 : tensor<128x1xi32> loc(#loc157)
    %113 = tt.broadcast %112 : tensor<128x1xi32> -> tensor<128x128xi32> loc(#loc158)
    %114 = arith.addi %113, %28 : tensor<128x128xi32> loc(#loc158)
    %115 = tt.splat %arg11 : !tt.ptr<bf16> -> tensor<128x128x!tt.ptr<bf16>> loc(#loc159)
    %116 = tt.addptr %115, %114 : tensor<128x128x!tt.ptr<bf16>>, tensor<128x128xi32> loc(#loc159)
    %117 = arith.truncf %107 : tensor<128x128xf32> to tensor<128x128xbf16> loc(#loc160)
    tt.store %116, %117, %38 : tensor<128x128x!tt.ptr<bf16>> loc(#loc160)
    tt.return loc(#loc161)
  } loc(#loc)
} loc(#loc)
#loc2 = loc("/data/home/scyb494/.conda/envs/verl/lib/python3.10/site-packages/vllm/attention/ops/prefix_prefill.py":86:30)
#loc3 = loc("/data/home/scyb494/.conda/envs/verl/lib/python3.10/site-packages/vllm/attention/ops/prefix_prefill.py":87:29)
#loc4 = loc("/data/home/scyb494/.conda/envs/verl/lib/python3.10/site-packages/vllm/attention/ops/prefix_prefill.py":88:28)
#loc5 = loc("/data/home/scyb494/.conda/envs/verl/lib/python3.10/site-packages/vllm/attention/ops/prefix_prefill.py":90:30)
#loc6 = loc("/data/home/scyb494/.conda/envs/verl/lib/python3.10/site-packages/vllm/attention/ops/prefix_prefill.py":92:43)
#loc7 = loc("/data/home/scyb494/.conda/envs/verl/lib/python3.10/site-packages/vllm/attention/ops/prefix_prefill.py":92:32)
#loc8 = loc("/data/home/scyb494/.conda/envs/verl/lib/python3.10/site-packages/vllm/attention/ops/prefix_prefill.py":93:57)
#loc9 = loc("/data/home/scyb494/.conda/envs/verl/lib/python3.10/site-packages/vllm/attention/ops/prefix_prefill.py":93:43)
#loc10 = loc("/data/home/scyb494/.conda/envs/verl/lib/python3.10/site-packages/vllm/attention/ops/prefix_prefill.py":94:68)
#loc11 = loc("/data/home/scyb494/.conda/envs/verl/lib/python3.10/site-packages/vllm/attention/ops/prefix_prefill.py":94:42)
#loc12 = loc("/data/home/scyb494/.conda/envs/verl/lib/python3.10/site-packages/vllm/attention/ops/prefix_prefill.py":96:27)
#loc13 = loc("/data/home/scyb494/.conda/envs/verl/lib/python3.10/site-packages/vllm/attention/ops/prefix_prefill.py":97:44)
#loc14 = loc("/data/home/scyb494/.conda/envs/verl/lib/python3.10/site-packages/vllm/attention/ops/prefix_prefill.py":104:32)
#loc15 = loc("/data/home/scyb494/.conda/envs/verl/lib/python3.10/site-packages/vllm/attention/ops/prefix_prefill.py":108:29)
#loc16 = loc("/data/home/scyb494/.conda/envs/verl/lib/python3.10/site-packages/vllm/attention/ops/prefix_prefill.py":110:26)
#loc17 = loc("/data/home/scyb494/.conda/envs/verl/lib/python3.10/site-packages/vllm/attention/ops/prefix_prefill.py":112:26)
#loc18 = loc("/data/home/scyb494/.conda/envs/verl/lib/python3.10/site-packages/vllm/attention/ops/prefix_prefill.py":114:33)
#loc19 = loc("/data/home/scyb494/.conda/envs/verl/lib/python3.10/site-packages/vllm/attention/ops/prefix_prefill.py":116:52)
#loc20 = loc("/data/home/scyb494/.conda/envs/verl/lib/python3.10/site-packages/vllm/attention/ops/prefix_prefill.py":116:45)
#loc21 = loc("/data/home/scyb494/.conda/envs/verl/lib/python3.10/site-packages/vllm/attention/ops/prefix_prefill.py":116:64)
#loc22 = loc("/data/home/scyb494/.conda/envs/verl/lib/python3.10/site-packages/vllm/attention/ops/prefix_prefill.py":117:24)
#loc23 = loc("/data/home/scyb494/.conda/envs/verl/lib/python3.10/site-packages/vllm/attention/ops/prefix_prefill.py":117:13)
#loc24 = loc("/data/home/scyb494/.conda/envs/verl/lib/python3.10/site-packages/vllm/attention/ops/prefix_prefill.py":117:43)
#loc25 = loc("/data/home/scyb494/.conda/envs/verl/lib/python3.10/site-packages/vllm/attention/ops/prefix_prefill.py":117:36)
#loc26 = loc("/data/home/scyb494/.conda/envs/verl/lib/python3.10/site-packages/vllm/attention/ops/prefix_prefill.py":120:44)
#loc27 = loc("/data/home/scyb494/.conda/envs/verl/lib/python3.10/site-packages/vllm/attention/ops/prefix_prefill.py":121:8)
#loc28 = loc("/data/home/scyb494/.conda/envs/verl/lib/python3.10/site-packages/vllm/attention/ops/prefix_prefill.py":121:14)
#loc29 = loc("/data/home/scyb494/.conda/envs/verl/lib/python3.10/site-packages/vllm/attention/ops/prefix_prefill.py":124:30)
#loc30 = loc("/data/home/scyb494/.conda/envs/verl/lib/python3.10/site-packages/vllm/attention/ops/prefix_prefill.py":125:35)
#loc31 = loc("/data/home/scyb494/.conda/envs/verl/lib/python3.10/site-packages/vllm/attention/ops/prefix_prefill.py":125:17)
#loc32 = loc("/data/home/scyb494/.conda/envs/verl/lib/python3.10/site-packages/vllm/attention/ops/prefix_prefill.py":123:20)
#loc33 = loc("/data/home/scyb494/.conda/envs/verl/lib/python3.10/site-packages/vllm/attention/ops/prefix_prefill.py":123:16)
#loc34 = loc("/data/home/scyb494/.conda/envs/verl/lib/python3.10/site-packages/vllm/attention/ops/prefix_prefill.py":138:29)
#loc35 = loc("/data/home/scyb494/.conda/envs/verl/lib/python3.10/site-packages/vllm/attention/ops/prefix_prefill.py":142:60)
#loc36 = loc("/data/home/scyb494/.conda/envs/verl/lib/python3.10/site-packages/vllm/attention/ops/prefix_prefill.py":143:20)
#loc37 = loc("/data/home/scyb494/.conda/envs/verl/lib/python3.10/site-packages/vllm/attention/ops/prefix_prefill.py":143:32)
#loc38 = loc("/data/home/scyb494/.conda/envs/verl/lib/python3.10/site-packages/vllm/attention/ops/prefix_prefill.py":143:37)
#loc39 = loc("/data/home/scyb494/.conda/envs/verl/lib/python3.10/site-packages/vllm/attention/ops/prefix_prefill.py":144:34)
#loc40 = loc("/data/home/scyb494/.conda/envs/verl/lib/python3.10/site-packages/vllm/attention/ops/prefix_prefill.py":145:31)
#loc41 = loc("/data/home/scyb494/.conda/envs/verl/lib/python3.10/site-packages/vllm/attention/ops/prefix_prefill.py":145:12)
#loc42 = loc("/data/home/scyb494/.conda/envs/verl/lib/python3.10/site-packages/vllm/attention/ops/prefix_prefill.py":149:31)
#loc43 = loc("/data/home/scyb494/.conda/envs/verl/lib/python3.10/site-packages/vllm/attention/ops/prefix_prefill.py":150:35)
#loc44 = loc("/data/home/scyb494/.conda/envs/verl/lib/python3.10/site-packages/vllm/attention/ops/prefix_prefill.py":151:27)
#loc45 = loc("/data/home/scyb494/.conda/envs/verl/lib/python3.10/site-packages/vllm/attention/ops/prefix_prefill.py":151:17)
#loc46 = loc("/data/home/scyb494/.conda/envs/verl/lib/python3.10/site-packages/vllm/attention/ops/prefix_prefill.py":170:55)
#loc47 = loc("/data/home/scyb494/.conda/envs/verl/lib/python3.10/site-packages/vllm/attention/ops/prefix_prefill.py":172:14)
#loc48 = loc("/data/home/scyb494/.conda/envs/verl/lib/python3.10/site-packages/vllm/attention/ops/prefix_prefill.py":135:28)
#loc49 = loc("/data/home/scyb494/.conda/envs/verl/lib/python3.10/site-packages/vllm/attention/ops/prefix_prefill.py":139:33)
#loc50 = loc("/data/home/scyb494/.conda/envs/verl/lib/python3.10/site-packages/vllm/attention/ops/prefix_prefill.py":139:21)
#loc51 = loc("/data/home/scyb494/.conda/envs/verl/lib/python3.10/site-packages/vllm/attention/ops/prefix_prefill.py":138:21)
#loc52 = loc("/data/home/scyb494/.conda/envs/verl/lib/python3.10/site-packages/vllm/attention/ops/prefix_prefill.py":142:26)
#loc53 = loc("/data/home/scyb494/.conda/envs/verl/lib/python3.10/site-packages/vllm/attention/ops/prefix_prefill.py":142:46)
#loc54 = loc("/data/home/scyb494/.conda/envs/verl/lib/python3.10/site-packages/vllm/attention/ops/prefix_prefill.py":143:12)
#loc55 = loc("/data/home/scyb494/.conda/envs/verl/lib/python3.10/site-packages/vllm/attention/ops/prefix_prefill.py":144:24)
#loc56 = loc("/data/home/scyb494/.conda/envs/verl/lib/python3.10/site-packages/vllm/attention/ops/prefix_prefill.py":144:46)
#loc57 = loc("/data/home/scyb494/.conda/envs/verl/lib/python3.10/site-packages/vllm/attention/ops/prefix_prefill.py":144:60)
#loc58 = loc("/data/home/scyb494/.conda/envs/verl/lib/python3.10/site-packages/vllm/attention/ops/prefix_prefill.py":144:12)
#loc59 = loc("/data/home/scyb494/.conda/envs/verl/lib/python3.10/site-packages/vllm/attention/ops/prefix_prefill.py":148:31)
#loc60 = loc("/data/home/scyb494/.conda/envs/verl/lib/python3.10/site-packages/vllm/attention/ops/prefix_prefill.py":149:17)
#loc61 = loc("/data/home/scyb494/.conda/envs/verl/lib/python3.10/site-packages/vllm/attention/ops/prefix_prefill.py":150:17)
#loc62 = loc("/data/home/scyb494/.conda/envs/verl/lib/python3.10/site-packages/vllm/attention/ops/prefix_prefill.py":153:21)
#loc63 = loc("/data/home/scyb494/.conda/envs/verl/lib/python3.10/site-packages/vllm/attention/ops/prefix_prefill.py":153:34)
#loc64 = loc("/data/home/scyb494/.conda/envs/verl/lib/python3.10/site-packages/vllm/attention/ops/prefix_prefill.py":153:11)
#loc65 = loc("/data/home/scyb494/.conda/envs/verl/lib/python3.10/site-packages/vllm/attention/ops/prefix_prefill.py":157:30)
#loc66 = loc("/data/home/scyb494/.conda/envs/verl/lib/python3.10/site-packages/vllm/attention/ops/prefix_prefill.py":158:50)
#loc67 = loc("/data/home/scyb494/.conda/envs/verl/lib/python3.10/site-packages/vllm/attention/ops/prefix_prefill.py":158:17)
#loc68 = loc("/data/home/scyb494/.conda/envs/verl/lib/python3.10/site-packages/vllm/attention/ops/prefix_prefill.py":156:26)
#loc69 = loc("/data/home/scyb494/.conda/envs/verl/lib/python3.10/site-packages/vllm/attention/ops/prefix_prefill.py":156:16)
#loc70 = loc("/data/home/scyb494/.conda/envs/verl/lib/python3.10/site-packages/vllm/attention/ops/prefix_prefill.py":161:39)
#loc71 = loc("/data/home/scyb494/.conda/envs/verl/lib/python3.10/site-packages/vllm/attention/ops/prefix_prefill.py":161:29)
#loc72 = loc("/data/home/scyb494/.conda/envs/verl/lib/python3.10/site-packages/vllm/attention/ops/prefix_prefill.py":169:23)
#loc73 = loc("/data/home/scyb494/.conda/envs/verl/lib/python3.10/site-packages/vllm/attention/ops/prefix_prefill.py":171:22)
#loc74 = loc("/data/home/scyb494/.conda/envs/verl/lib/python3.10/site-packages/triton/language/standard.py":184:40)
#loc76 = loc("/data/home/scyb494/.conda/envs/verl/lib/python3.10/site-packages/triton/language/standard.py":163:27)
#loc77 = loc("/data/home/scyb494/.conda/envs/verl/lib/python3.10/site-packages/vllm/attention/ops/prefix_prefill.py":190:31)
#loc78 = loc("/data/home/scyb494/.conda/envs/verl/lib/python3.10/site-packages/vllm/attention/ops/prefix_prefill.py":191:29)
#loc79 = loc("/data/home/scyb494/.conda/envs/verl/lib/python3.10/site-packages/vllm/attention/ops/prefix_prefill.py":191:24)
#loc80 = loc("/data/home/scyb494/.conda/envs/verl/lib/python3.10/site-packages/vllm/attention/ops/prefix_prefill.py":191:19)
#loc81 = loc("/data/home/scyb494/.conda/envs/verl/lib/python3.10/site-packages/triton/language/standard.py":267:36)
#loc83 = loc("/data/home/scyb494/.conda/envs/verl/lib/python3.10/site-packages/triton/language/standard.py":256:15)
#loc84 = loc("/data/home/scyb494/.conda/envs/verl/lib/python3.10/site-packages/vllm/attention/ops/prefix_prefill.py":193:29)
#loc85 = loc("/data/home/scyb494/.conda/envs/verl/lib/python3.10/site-packages/vllm/attention/ops/prefix_prefill.py":193:23)
#loc86 = loc("/data/home/scyb494/.conda/envs/verl/lib/python3.10/site-packages/vllm/attention/ops/prefix_prefill.py":194:26)
#loc87 = loc("/data/home/scyb494/.conda/envs/verl/lib/python3.10/site-packages/vllm/attention/ops/prefix_prefill.py":194:20)
#loc88 = loc("/data/home/scyb494/.conda/envs/verl/lib/python3.10/site-packages/vllm/attention/ops/prefix_prefill.py":197:11)
#loc89 = loc("/data/home/scyb494/.conda/envs/verl/lib/python3.10/site-packages/vllm/attention/ops/prefix_prefill.py":202:28)
#loc90 = loc("/data/home/scyb494/.conda/envs/verl/lib/python3.10/site-packages/vllm/attention/ops/prefix_prefill.py":202:50)
#loc91 = loc("/data/home/scyb494/.conda/envs/verl/lib/python3.10/site-packages/vllm/attention/ops/prefix_prefill.py":202:17)
#loc92 = loc("/data/home/scyb494/.conda/envs/verl/lib/python3.10/site-packages/vllm/attention/ops/prefix_prefill.py":200:26)
#loc93 = loc("/data/home/scyb494/.conda/envs/verl/lib/python3.10/site-packages/vllm/attention/ops/prefix_prefill.py":200:16)
#loc94 = loc("/data/home/scyb494/.conda/envs/verl/lib/python3.10/site-packages/vllm/attention/ops/prefix_prefill.py":205:39)
#loc95 = loc("/data/home/scyb494/.conda/envs/verl/lib/python3.10/site-packages/vllm/attention/ops/prefix_prefill.py":205:29)
#loc96 = loc("/data/home/scyb494/.conda/envs/verl/lib/python3.10/site-packages/vllm/attention/ops/prefix_prefill.py":211:17)
#loc97 = loc("/data/home/scyb494/.conda/envs/verl/lib/python3.10/site-packages/vllm/attention/ops/prefix_prefill.py":213:24)
#loc98 = loc("/data/home/scyb494/.conda/envs/verl/lib/python3.10/site-packages/vllm/attention/ops/prefix_prefill.py":215:20)
#loc99 = loc("/data/home/scyb494/.conda/envs/verl/lib/python3.10/site-packages/vllm/attention/ops/prefix_prefill.py":215:28)
#loc100 = loc("/data/home/scyb494/.conda/envs/verl/lib/python3.10/site-packages/vllm/attention/ops/prefix_prefill.py":216:8)
#loc101 = loc("/data/home/scyb494/.conda/envs/verl/lib/python3.10/site-packages/vllm/attention/ops/prefix_prefill.py":218:20)
#loc102 = loc("/data/home/scyb494/.conda/envs/verl/lib/python3.10/site-packages/vllm/attention/ops/prefix_prefill.py":218:31)
#loc103 = loc("/data/home/scyb494/.conda/envs/verl/lib/python3.10/site-packages/vllm/attention/ops/prefix_prefill.py":218:58)
#loc104 = loc("/data/home/scyb494/.conda/envs/verl/lib/python3.10/site-packages/vllm/attention/ops/prefix_prefill.py":218:44)
#loc105 = loc("/data/home/scyb494/.conda/envs/verl/lib/python3.10/site-packages/vllm/attention/ops/prefix_prefill.py":219:20)
#loc106 = loc("/data/home/scyb494/.conda/envs/verl/lib/python3.10/site-packages/vllm/attention/ops/prefix_prefill.py":219:13)
#loc107 = loc("/data/home/scyb494/.conda/envs/verl/lib/python3.10/site-packages/vllm/attention/ops/prefix_prefill.py":220:20)
#loc108 = loc("/data/home/scyb494/.conda/envs/verl/lib/python3.10/site-packages/vllm/attention/ops/prefix_prefill.py":220:31)
#loc109 = loc("/data/home/scyb494/.conda/envs/verl/lib/python3.10/site-packages/vllm/attention/ops/prefix_prefill.py":220:58)
#loc110 = loc("/data/home/scyb494/.conda/envs/verl/lib/python3.10/site-packages/vllm/attention/ops/prefix_prefill.py":220:44)
#loc111 = loc("/data/home/scyb494/.conda/envs/verl/lib/python3.10/site-packages/vllm/attention/ops/prefix_prefill.py":221:13)
#loc112 = loc("/data/home/scyb494/.conda/envs/verl/lib/python3.10/site-packages/vllm/attention/ops/prefix_prefill.py":222:17)
#loc113 = loc("/data/home/scyb494/.conda/envs/verl/lib/python3.10/site-packages/vllm/attention/ops/prefix_prefill.py":223:17)
#loc114 = loc("/data/home/scyb494/.conda/envs/verl/lib/python3.10/site-packages/vllm/attention/ops/prefix_prefill.py":226:44)
#loc115 = loc("/data/home/scyb494/.conda/envs/verl/lib/python3.10/site-packages/vllm/attention/ops/prefix_prefill.py":226:68)
#loc116 = loc("/data/home/scyb494/.conda/envs/verl/lib/python3.10/site-packages/vllm/attention/ops/prefix_prefill.py":230:48)
#loc117 = loc("/data/home/scyb494/.conda/envs/verl/lib/python3.10/site-packages/vllm/attention/ops/prefix_prefill.py":230:38)
#loc118 = loc("/data/home/scyb494/.conda/envs/verl/lib/python3.10/site-packages/vllm/attention/ops/prefix_prefill.py":230:53)
#loc119 = loc("/data/home/scyb494/.conda/envs/verl/lib/python3.10/site-packages/vllm/attention/ops/prefix_prefill.py":236:34)
#loc120 = loc("/data/home/scyb494/.conda/envs/verl/lib/python3.10/site-packages/vllm/attention/ops/prefix_prefill.py":237:51)
#loc121 = loc("/data/home/scyb494/.conda/envs/verl/lib/python3.10/site-packages/vllm/attention/ops/prefix_prefill.py":237:21)
#loc122 = loc("/data/home/scyb494/.conda/envs/verl/lib/python3.10/site-packages/vllm/attention/ops/prefix_prefill.py":242:14)
#loc123 = loc("/data/home/scyb494/.conda/envs/verl/lib/python3.10/site-packages/vllm/attention/ops/prefix_prefill.py":244:42)
#loc124 = loc("/data/home/scyb494/.conda/envs/verl/lib/python3.10/site-packages/vllm/attention/ops/prefix_prefill.py":262:51)
#loc125 = loc("/data/home/scyb494/.conda/envs/verl/lib/python3.10/site-packages/vllm/attention/ops/prefix_prefill.py":262:21)
#loc126 = loc("/data/home/scyb494/.conda/envs/verl/lib/python3.10/site-packages/vllm/attention/ops/prefix_prefill.py":231:24)
#loc127 = loc("/data/home/scyb494/.conda/envs/verl/lib/python3.10/site-packages/vllm/attention/ops/prefix_prefill.py":237:32)
#loc128 = loc("/data/home/scyb494/.conda/envs/verl/lib/python3.10/site-packages/vllm/attention/ops/prefix_prefill.py":235:52)
#loc129 = loc("/data/home/scyb494/.conda/envs/verl/lib/python3.10/site-packages/vllm/attention/ops/prefix_prefill.py":235:63)
#loc130 = loc("/data/home/scyb494/.conda/envs/verl/lib/python3.10/site-packages/vllm/attention/ops/prefix_prefill.py":235:20)
#loc131 = loc("/data/home/scyb494/.conda/envs/verl/lib/python3.10/site-packages/vllm/attention/ops/prefix_prefill.py":234:20)
#loc132 = loc("/data/home/scyb494/.conda/envs/verl/lib/python3.10/site-packages/vllm/attention/ops/prefix_prefill.py":241:23)
#loc133 = loc("/data/home/scyb494/.conda/envs/verl/lib/python3.10/site-packages/vllm/attention/ops/prefix_prefill.py":245:22)
#loc135 = loc("/data/home/scyb494/.conda/envs/verl/lib/python3.10/site-packages/vllm/attention/ops/prefix_prefill.py":252:31)
#loc136 = loc("/data/home/scyb494/.conda/envs/verl/lib/python3.10/site-packages/vllm/attention/ops/prefix_prefill.py":253:29)
#loc137 = loc("/data/home/scyb494/.conda/envs/verl/lib/python3.10/site-packages/vllm/attention/ops/prefix_prefill.py":253:24)
#loc138 = loc("/data/home/scyb494/.conda/envs/verl/lib/python3.10/site-packages/vllm/attention/ops/prefix_prefill.py":253:19)
#loc140 = loc("/data/home/scyb494/.conda/envs/verl/lib/python3.10/site-packages/vllm/attention/ops/prefix_prefill.py":255:29)
#loc141 = loc("/data/home/scyb494/.conda/envs/verl/lib/python3.10/site-packages/vllm/attention/ops/prefix_prefill.py":255:23)
#loc142 = loc("/data/home/scyb494/.conda/envs/verl/lib/python3.10/site-packages/vllm/attention/ops/prefix_prefill.py":256:26)
#loc143 = loc("/data/home/scyb494/.conda/envs/verl/lib/python3.10/site-packages/vllm/attention/ops/prefix_prefill.py":256:20)
#loc144 = loc("/data/home/scyb494/.conda/envs/verl/lib/python3.10/site-packages/vllm/attention/ops/prefix_prefill.py":262:32)
#loc145 = loc("/data/home/scyb494/.conda/envs/verl/lib/python3.10/site-packages/vllm/attention/ops/prefix_prefill.py":260:63)
#loc146 = loc("/data/home/scyb494/.conda/envs/verl/lib/python3.10/site-packages/vllm/attention/ops/prefix_prefill.py":260:20)
#loc147 = loc("/data/home/scyb494/.conda/envs/verl/lib/python3.10/site-packages/vllm/attention/ops/prefix_prefill.py":259:20)
#loc148 = loc("/data/home/scyb494/.conda/envs/verl/lib/python3.10/site-packages/vllm/attention/ops/prefix_prefill.py":264:17)
#loc149 = loc("/data/home/scyb494/.conda/envs/verl/lib/python3.10/site-packages/vllm/attention/ops/prefix_prefill.py":266:24)
#loc150 = loc("/data/home/scyb494/.conda/envs/verl/lib/python3.10/site-packages/vllm/attention/ops/prefix_prefill.py":268:20)
#loc151 = loc("/data/home/scyb494/.conda/envs/verl/lib/python3.10/site-packages/vllm/attention/ops/prefix_prefill.py":268:28)
#loc152 = loc("/data/home/scyb494/.conda/envs/verl/lib/python3.10/site-packages/vllm/attention/ops/prefix_prefill.py":269:8)
#loc153 = loc("/data/home/scyb494/.conda/envs/verl/lib/python3.10/site-packages/vllm/attention/ops/prefix_prefill.py":271:20)
#loc154 = loc("/data/home/scyb494/.conda/envs/verl/lib/python3.10/site-packages/vllm/attention/ops/prefix_prefill.py":271:16)
#loc155 = loc("/data/home/scyb494/.conda/envs/verl/lib/python3.10/site-packages/vllm/attention/ops/prefix_prefill.py":274:64)
#loc156 = loc("/data/home/scyb494/.conda/envs/verl/lib/python3.10/site-packages/vllm/attention/ops/prefix_prefill.py":275:24)
#loc157 = loc("/data/home/scyb494/.conda/envs/verl/lib/python3.10/site-packages/vllm/attention/ops/prefix_prefill.py":275:13)
#loc158 = loc("/data/home/scyb494/.conda/envs/verl/lib/python3.10/site-packages/vllm/attention/ops/prefix_prefill.py":275:36)
#loc159 = loc("/data/home/scyb494/.conda/envs/verl/lib/python3.10/site-packages/vllm/attention/ops/prefix_prefill.py":276:21)
#loc160 = loc("/data/home/scyb494/.conda/envs/verl/lib/python3.10/site-packages/vllm/attention/ops/prefix_prefill.py":278:13)
#loc161 = loc("/data/home/scyb494/.conda/envs/verl/lib/python3.10/site-packages/vllm/attention/ops/prefix_prefill.py":280:4)
#loc162 = loc(callsite(#loc74 at #loc75))
#loc164 = loc(callsite(#loc76 at #loc74))
#loc165 = loc(callsite(#loc81 at #loc82))
#loc167 = loc(callsite(#loc83 at #loc81))
#loc168 = loc(callsite(#loc74 at #loc134))
#loc170 = loc(callsite(#loc81 at #loc139))
#loc172 = loc(callsite(#loc164 at #loc75))
#loc173 = loc(callsite(#loc167 at #loc82))
#loc174 = loc(callsite(#loc164 at #loc134))
#loc175 = loc(callsite(#loc167 at #loc139))
