#loc = loc("/data/home/scyb494/.conda/envs/verl/lib/python3.10/site-packages/vllm/attention/ops/prefix_prefill.py":36:0)
#loc1 = loc(unknown)
#loc76 = loc("/data/home/scyb494/.conda/envs/verl/lib/python3.10/site-packages/vllm/attention/ops/prefix_prefill.py":190:38)
#loc83 = loc("/data/home/scyb494/.conda/envs/verl/lib/python3.10/site-packages/vllm/attention/ops/prefix_prefill.py":192:22)
#loc133 = loc("/data/home/scyb494/.conda/envs/verl/lib/python3.10/site-packages/vllm/attention/ops/prefix_prefill.py":252:38)
#loc138 = loc("/data/home/scyb494/.conda/envs/verl/lib/python3.10/site-packages/vllm/attention/ops/prefix_prefill.py":254:22)
#loc162 = loc(callsite(#loc1 at #loc76))
#loc165 = loc(callsite(#loc1 at #loc83))
#loc168 = loc(callsite(#loc1 at #loc133))
#loc170 = loc(callsite(#loc1 at #loc138))
module {
  tt.func public @_fwd_kernel(%arg0: !tt.ptr<bf16> {tt.divisibility = 16 : i32} loc("/data/home/scyb494/.conda/envs/verl/lib/python3.10/site-packages/vllm/attention/ops/prefix_prefill.py":36:0), %arg1: !tt.ptr<bf16> {tt.divisibility = 16 : i32} loc("/data/home/scyb494/.conda/envs/verl/lib/python3.10/site-packages/vllm/attention/ops/prefix_prefill.py":36:0), %arg2: !tt.ptr<bf16> {tt.divisibility = 16 : i32} loc("/data/home/scyb494/.conda/envs/verl/lib/python3.10/site-packages/vllm/attention/ops/prefix_prefill.py":36:0), %arg3: !tt.ptr<bf16> {tt.divisibility = 16 : i32} loc("/data/home/scyb494/.conda/envs/verl/lib/python3.10/site-packages/vllm/attention/ops/prefix_prefill.py":36:0), %arg4: !tt.ptr<bf16> {tt.divisibility = 16 : i32} loc("/data/home/scyb494/.conda/envs/verl/lib/python3.10/site-packages/vllm/attention/ops/prefix_prefill.py":36:0), %arg5: !tt.ptr<i32> {tt.divisibility = 16 : i32} loc("/data/home/scyb494/.conda/envs/verl/lib/python3.10/site-packages/vllm/attention/ops/prefix_prefill.py":36:0), %arg6: f32 loc("/data/home/scyb494/.conda/envs/verl/lib/python3.10/site-packages/vllm/attention/ops/prefix_prefill.py":36:0), %arg7: !tt.ptr<f32> {tt.divisibility = 16 : i32} loc("/data/home/scyb494/.conda/envs/verl/lib/python3.10/site-packages/vllm/attention/ops/prefix_prefill.py":36:0), %arg8: !tt.ptr<f32> {tt.divisibility = 16 : i32} loc("/data/home/scyb494/.conda/envs/verl/lib/python3.10/site-packages/vllm/attention/ops/prefix_prefill.py":36:0), %arg9: !tt.ptr<i32> {tt.divisibility = 16 : i32} loc("/data/home/scyb494/.conda/envs/verl/lib/python3.10/site-packages/vllm/attention/ops/prefix_prefill.py":36:0), %arg10: !tt.ptr<i32> {tt.divisibility = 16 : i32} loc("/data/home/scyb494/.conda/envs/verl/lib/python3.10/site-packages/vllm/attention/ops/prefix_prefill.py":36:0), %arg11: !tt.ptr<bf16> {tt.divisibility = 16 : i32} loc("/data/home/scyb494/.conda/envs/verl/lib/python3.10/site-packages/vllm/attention/ops/prefix_prefill.py":36:0), %arg12: i32 {tt.divisibility = 16 : i32} loc("/data/home/scyb494/.conda/envs/verl/lib/python3.10/site-packages/vllm/attention/ops/prefix_prefill.py":36:0), %arg13: i32 {tt.divisibility = 16 : i32} loc("/data/home/scyb494/.conda/envs/verl/lib/python3.10/site-packages/vllm/attention/ops/prefix_prefill.py":36:0), %arg14: i32 {tt.divisibility = 16 : i32} loc("/data/home/scyb494/.conda/envs/verl/lib/python3.10/site-packages/vllm/attention/ops/prefix_prefill.py":36:0), %arg15: i32 {tt.divisibility = 16 : i32} loc("/data/home/scyb494/.conda/envs/verl/lib/python3.10/site-packages/vllm/attention/ops/prefix_prefill.py":36:0), %arg16: i32 {tt.divisibility = 16 : i32} loc("/data/home/scyb494/.conda/envs/verl/lib/python3.10/site-packages/vllm/attention/ops/prefix_prefill.py":36:0), %arg17: i32 {tt.divisibility = 16 : i32} loc("/data/home/scyb494/.conda/envs/verl/lib/python3.10/site-packages/vllm/attention/ops/prefix_prefill.py":36:0), %arg18: i32 {tt.divisibility = 16 : i32} loc("/data/home/scyb494/.conda/envs/verl/lib/python3.10/site-packages/vllm/attention/ops/prefix_prefill.py":36:0), %arg19: i32 {tt.divisibility = 16 : i32} loc("/data/home/scyb494/.conda/envs/verl/lib/python3.10/site-packages/vllm/attention/ops/prefix_prefill.py":36:0), %arg20: i32 {tt.divisibility = 16 : i32} loc("/data/home/scyb494/.conda/envs/verl/lib/python3.10/site-packages/vllm/attention/ops/prefix_prefill.py":36:0), %arg21: i32 {tt.divisibility = 16 : i32} loc("/data/home/scyb494/.conda/envs/verl/lib/python3.10/site-packages/vllm/attention/ops/prefix_prefill.py":36:0), %arg22: i32 {tt.divisibility = 16 : i32} loc("/data/home/scyb494/.conda/envs/verl/lib/python3.10/site-packages/vllm/attention/ops/prefix_prefill.py":36:0), %arg23: i32 {tt.divisibility = 16 : i32} loc("/data/home/scyb494/.conda/envs/verl/lib/python3.10/site-packages/vllm/attention/ops/prefix_prefill.py":36:0), %arg24: i32 {tt.divisibility = 16 : i32} loc("/data/home/scyb494/.conda/envs/verl/lib/python3.10/site-packages/vllm/attention/ops/prefix_prefill.py":36:0), %arg25: i32 {tt.divisibility = 16 : i32} loc("/data/home/scyb494/.conda/envs/verl/lib/python3.10/site-packages/vllm/attention/ops/prefix_prefill.py":36:0), %arg26: i32 {tt.divisibility = 16 : i32} loc("/data/home/scyb494/.conda/envs/verl/lib/python3.10/site-packages/vllm/attention/ops/prefix_prefill.py":36:0)) attributes {noinline = false} {
    %cst = arith.constant dense<0.000000e+00> : tensor<128x16xf32> loc(#loc1)
    %cst_0 = arith.constant dense<0.000000e+00> : tensor<128x64xf32> loc(#loc1)
    %cst_1 = arith.constant dense<0.000000e+00> : tensor<64x64xbf16> loc(#loc1)
    %c64_i32 = arith.constant 64 : i32 loc(#loc1)
    %cst_2 = arith.constant dense<0.000000e+00> : tensor<16x64xbf16> loc(#loc1)
    %cst_3 = arith.constant dense<0.000000e+00> : tensor<64x16xbf16> loc(#loc1)
    %c0_i32 = arith.constant 0 : i32 loc(#loc1)
    %cst_4 = arith.constant dense<0.000000e+00> : tensor<128x64xbf16> loc(#loc1)
    %cst_5 = arith.constant dense<0xFF800000> : tensor<128x64xf32> loc(#loc1)
    %cst_6 = arith.constant dense<0xFF800000> : tensor<128x16xf32> loc(#loc1)
    %cst_7 = arith.constant dense<8> : tensor<1x16xi32> loc(#loc1)
    %cst_8 = arith.constant dense<16> : tensor<1x16xi32> loc(#loc1)
    %cst_9 = arith.constant dense<8> : tensor<64x1xi32> loc(#loc1)
    %c16_i32 = arith.constant 16 : i32 loc(#loc1)
    %cst_10 = arith.constant dense<1.000000e+00> : tensor<128xf32> loc(#loc1)
    %cst_11 = arith.constant dense<0xFF800000> : tensor<128xf32> loc(#loc1)
    %cst_12 = arith.constant dense<0> : tensor<64xi32> loc(#loc1)
    %cst_13 = arith.constant dense<1> : tensor<64xi32> loc(#loc1)
    %cst_14 = arith.constant dense<64> : tensor<64xi32> loc(#loc1)
    %c128_i32 = arith.constant 128 : i32 loc(#loc1)
    %c1_i32 = arith.constant 1 : i32 loc(#loc1)
    %c7_i32 = arith.constant 7 : i32 loc(#loc1)
    %0 = tt.get_program_id x : i32 loc(#loc2)
    %1 = tt.get_program_id y : i32 loc(#loc3)
    %2 = tt.get_program_id z : i32 loc(#loc4)
    %3 = arith.divsi %1, %c7_i32 : i32 loc(#loc5)
    %4 = tt.addptr %arg10, %0 : !tt.ptr<i32>, i32 loc(#loc6)
    %5 = tt.load %4 : !tt.ptr<i32> loc(#loc7)
    %6 = tt.addptr %arg9, %0 : !tt.ptr<i32>, i32 loc(#loc8)
    %7 = tt.load %6 : !tt.ptr<i32> loc(#loc9)
    %8 = tt.addptr %6, %c1_i32 : !tt.ptr<i32>, i32 loc(#loc10)
    %9 = tt.load %8 : !tt.ptr<i32> loc(#loc11)
    %10 = arith.subi %9, %7 : i32 loc(#loc12)
    %11 = arith.subi %5, %10 : i32 loc(#loc13)
    %12 = arith.muli %2, %c128_i32 : i32 loc(#loc14)
    %13 = tt.make_range {end = 16 : i32, start = 0 : i32} : tensor<16xi32> loc(#loc15)
    %14 = tt.make_range {end = 64 : i32, start = 0 : i32} : tensor<64xi32> loc(#loc16)
    %15 = tt.make_range {end = 128 : i32, start = 0 : i32} : tensor<128xi32> loc(#loc17)
    %16 = tt.splat %12 : i32 -> tensor<128xi32> loc(#loc18)
    %17 = arith.addi %16, %15 : tensor<128xi32> loc(#loc18)
    %18 = tt.expand_dims %17 {axis = 1 : i32} : tensor<128xi32> -> tensor<128x1xi32> loc(#loc19)
    %19 = tt.splat %7 : i32 -> tensor<128x1xi32> loc(#loc20)
    %20 = arith.addi %19, %18 : tensor<128x1xi32> loc(#loc20)
    %21 = tt.splat %arg13 : i32 -> tensor<128x1xi32> loc(#loc21)
    %22 = arith.muli %20, %21 : tensor<128x1xi32> loc(#loc21)
    %23 = arith.muli %1, %arg14 : i32 loc(#loc22)
    %24 = tt.splat %23 : i32 -> tensor<128x1xi32> loc(#loc23)
    %25 = arith.addi %22, %24 : tensor<128x1xi32> loc(#loc23)
    %26 = tt.expand_dims %14 {axis = 0 : i32} : tensor<64xi32> -> tensor<1x64xi32> loc(#loc24)
    %27 = tt.broadcast %25 : tensor<128x1xi32> -> tensor<128x64xi32> loc(#loc25)
    %28 = tt.broadcast %26 : tensor<1x64xi32> -> tensor<128x64xi32> loc(#loc25)
    %29 = arith.addi %27, %28 : tensor<128x64xi32> loc(#loc25)
    %30 = arith.cmpi slt, %14, %cst_14 : tensor<64xi32> loc(#loc26)
    %31 = arith.select %30, %cst_13, %cst_12 : tensor<64xi1>, tensor<64xi32> loc(#loc27)
    %32 = arith.cmpi ne, %31, %cst_12 : tensor<64xi32> loc(#loc28)
    %33 = tt.expand_dims %32 {axis = 0 : i32} : tensor<64xi1> -> tensor<1x64xi1> loc(#loc29)
    %34 = tt.splat %10 : i32 -> tensor<128x1xi32> loc(#loc30)
    %35 = arith.cmpi slt, %18, %34 : tensor<128x1xi32> loc(#loc30)
    %36 = tt.broadcast %33 : tensor<1x64xi1> -> tensor<128x64xi1> loc(#loc31)
    %37 = tt.broadcast %35 : tensor<128x1xi1> -> tensor<128x64xi1> loc(#loc31)
    %38 = arith.andi %36, %37 : tensor<128x64xi1> loc(#loc31)
    %39 = tt.splat %arg0 : !tt.ptr<bf16> -> tensor<128x64x!tt.ptr<bf16>> loc(#loc32)
    %40 = tt.addptr %39, %29 : tensor<128x64x!tt.ptr<bf16>>, tensor<128x64xi32> loc(#loc32)
    %41 = tt.load %40, %38, %cst_4 : tensor<128x64x!tt.ptr<bf16>> loc(#loc33)
    %42 = arith.muli %0, %arg12 : i32 loc(#loc34)
    %43 = tt.addptr %arg5, %42 : !tt.ptr<i32>, i32 loc(#loc35)
    %44 = arith.muli %3, %arg22 : i32 loc(#loc36)
    %45 = tt.expand_dims %14 {axis = 1 : i32} : tensor<64xi32> -> tensor<64x1xi32> loc(#loc37)
    %46 = arith.divsi %45, %cst_9 : tensor<64x1xi32> loc(#loc38)
    %47 = tt.splat %arg23 : i32 -> tensor<64x1xi32> loc(#loc39)
    %48 = arith.muli %46, %47 : tensor<64x1xi32> loc(#loc39)
    %49 = tt.expand_dims %13 {axis = 0 : i32} : tensor<16xi32> -> tensor<1x16xi32> loc(#loc40)
    %50 = arith.remsi %45, %cst_9 : tensor<64x1xi32> loc(#loc41)
    %51 = tt.broadcast %50 : tensor<64x1xi32> -> tensor<64x16xi32> loc(#loc42)
    %52 = arith.muli %3, %arg25 : i32 loc(#loc43)
    %53 = tt.splat %arg26 : i32 -> tensor<1x64xi32> loc(#loc44)
    %54 = arith.muli %26, %53 : tensor<1x64xi32> loc(#loc44)
    %55 = tt.expand_dims %13 {axis = 1 : i32} : tensor<16xi32> -> tensor<16x1xi32> loc(#loc45)
    %56 = tt.broadcast %55 : tensor<16x1xi32> -> tensor<16x64xi32> loc(#loc46)
    %57 = tt.splat %11 : i32 -> tensor<1x16xi32> loc(#loc47)
    %58 = tt.splat %arg6 : f32 -> tensor<128x16xf32> loc(#loc48)
    %59 = arith.subi %11, %c0_i32 : i32 loc(#loc49)
    %c1_i32_15 = arith.constant 1 : i32 loc(#loc49)
    %60 = arith.subi %c16_i32, %c1_i32_15 : i32 loc(#loc49)
    %61 = arith.addi %59, %60 : i32 loc(#loc49)
    %62 = arith.divui %61, %c16_i32 : i32 loc(#loc49)
    %c4_i32 = arith.constant 4 : i32 loc(#loc49)
    %63 = arith.remsi %62, %c4_i32 : i32 loc(#loc49)
    %64 = arith.subi %62, %63 : i32 loc(#loc49)
    %65 = arith.muli %64, %c16_i32 : i32 loc(#loc49)
    %66 = arith.addi %c0_i32, %65 : i32 loc(#loc49)
    %67 = arith.muli %c16_i32, %c4_i32 : i32 loc(#loc49)
    %68:3 = scf.for %arg27 = %c0_i32 to %66 step %67 iter_args(%arg28 = %cst_0, %arg29 = %cst_10, %arg30 = %cst_11) -> (tensor<128x64xf32>, tensor<128xf32>, tensor<128xf32>)  : i32 {
      %117 = arith.divsi %arg27, %c16_i32 : i32 loc(#loc50)
      %118 = tt.addptr %43, %117 : !tt.ptr<i32>, i32 loc(#loc51)
      %119 = tt.load %118 : !tt.ptr<i32> loc(#loc52)
      %120 = arith.muli %119, %arg21 : i32 loc(#loc53)
      %121 = arith.addi %120, %44 : i32 loc(#loc54)
      %122 = tt.splat %121 : i32 -> tensor<64x1xi32> loc(#loc55)
      %123 = arith.addi %122, %48 : tensor<64x1xi32> loc(#loc55)
      %124 = tt.splat %arg27 : i32 -> tensor<1x16xi32> loc(#loc56)
      %125 = arith.addi %124, %49 : tensor<1x16xi32> loc(#loc56)
      %126 = arith.remsi %125, %cst_8 : tensor<1x16xi32> loc(#loc57)
      %127 = arith.muli %126, %cst_7 : tensor<1x16xi32> loc(#loc58)
      %128 = tt.broadcast %123 : tensor<64x1xi32> -> tensor<64x16xi32> loc(#loc59)
      %129 = tt.broadcast %127 : tensor<1x16xi32> -> tensor<64x16xi32> loc(#loc59)
      %130 = arith.addi %128, %129 : tensor<64x16xi32> loc(#loc59)
      %131 = arith.addi %130, %51 : tensor<64x16xi32> loc(#loc42)
      %132 = arith.muli %119, %arg24 : i32 loc(#loc60)
      %133 = arith.addi %132, %52 : i32 loc(#loc61)
      %134 = tt.splat %133 : i32 -> tensor<1x64xi32> loc(#loc62)
      %135 = arith.addi %134, %54 : tensor<1x64xi32> loc(#loc62)
      %136 = tt.broadcast %135 : tensor<1x64xi32> -> tensor<16x64xi32> loc(#loc46)
      %137 = arith.addi %136, %56 : tensor<16x64xi32> loc(#loc46)
      %138 = arith.addi %arg27, %c16_i32 : i32 loc(#loc63)
      %139 = arith.cmpi sgt, %138, %11 : i32 loc(#loc64)
      %140 = scf.if %139 -> (tensor<64x16xbf16>) {
        %307 = tt.expand_dims %32 {axis = 1 : i32} : tensor<64xi1> -> tensor<64x1xi1> loc(#loc66)
        %308 = tt.splat %11 : i32 -> tensor<1x16xi32> loc(#loc67)
        %309 = arith.cmpi slt, %125, %308 : tensor<1x16xi32> loc(#loc67)
        %310 = tt.broadcast %307 : tensor<64x1xi1> -> tensor<64x16xi1> loc(#loc68)
        %311 = tt.broadcast %309 : tensor<1x16xi1> -> tensor<64x16xi1> loc(#loc68)
        %312 = arith.andi %310, %311 : tensor<64x16xi1> loc(#loc68)
        %313 = tt.splat %arg3 : !tt.ptr<bf16> -> tensor<64x16x!tt.ptr<bf16>> loc(#loc69)
        %314 = tt.addptr %313, %131 : tensor<64x16x!tt.ptr<bf16>>, tensor<64x16xi32> loc(#loc69)
        %315 = tt.load %314, %312, %cst_3 : tensor<64x16x!tt.ptr<bf16>> loc(#loc70)
        scf.yield %315 : tensor<64x16xbf16> loc(#loc70)
      } else {
        %307 = tt.splat %arg3 : !tt.ptr<bf16> -> tensor<64x16x!tt.ptr<bf16>> loc(#loc71)
        %308 = tt.addptr %307, %131 : tensor<64x16x!tt.ptr<bf16>>, tensor<64x16xi32> loc(#loc71)
        %309 = tt.load %308 : tensor<64x16x!tt.ptr<bf16>> loc(#loc72)
        scf.yield %309 : tensor<64x16xbf16> loc(#loc72)
      } loc(#loc65)
      %141 = tt.dot %41, %140, %cst, inputPrecision = tf32 : tensor<128x64xbf16> * tensor<64x16xbf16> -> tensor<128x16xf32> loc(#loc73)
      %142 = arith.cmpi slt, %125, %57 : tensor<1x16xi32> loc(#loc47)
      %143 = tt.broadcast %142 : tensor<1x16xi1> -> tensor<128x16xi1> loc(#loc74)
      %144 = arith.select %143, %141, %cst_6 : tensor<128x16xi1>, tensor<128x16xf32> loc(#loc74)
      %145 = arith.mulf %144, %58 : tensor<128x16xf32> loc(#loc48)
      %146 = "tt.reduce"(%145) <{axis = 1 : i32}> ({
      ^bb0(%arg31: f32 loc(callsite(#loc1 at #loc76)), %arg32: f32 loc(callsite(#loc1 at #loc76))):
        %307 = arith.maxnumf %arg31, %arg32 : f32 loc(#loc171)
        tt.reduce.return %307 : f32 loc(#loc161)
      }) : (tensor<128x16xf32>) -> tensor<128xf32> loc(#loc161)
      %147 = arith.maxnumf %arg30, %146 : tensor<128xf32> loc(#loc78)
      %148 = tt.expand_dims %147 {axis = 1 : i32} : tensor<128xf32> -> tensor<128x1xf32> loc(#loc79)
      %149 = tt.broadcast %148 : tensor<128x1xf32> -> tensor<128x16xf32> loc(#loc80)
      %150 = arith.subf %145, %149 : tensor<128x16xf32> loc(#loc80)
      %151 = math.exp %150 : tensor<128x16xf32> loc(#loc81)
      %152 = "tt.reduce"(%151) <{axis = 1 : i32}> ({
      ^bb0(%arg31: f32 loc(callsite(#loc1 at #loc83)), %arg32: f32 loc(callsite(#loc1 at #loc83))):
        %307 = arith.addf %arg31, %arg32 : f32 loc(#loc172)
        tt.reduce.return %307 : f32 loc(#loc164)
      }) : (tensor<128x16xf32>) -> tensor<128xf32> loc(#loc164)
      %153 = arith.subf %arg30, %147 : tensor<128xf32> loc(#loc85)
      %154 = math.exp %153 : tensor<128xf32> loc(#loc86)
      %155 = tt.expand_dims %154 {axis = 1 : i32} : tensor<128xf32> -> tensor<128x1xf32> loc(#loc87)
      %156 = tt.broadcast %155 : tensor<128x1xf32> -> tensor<128x64xf32> loc(#loc88)
      %157 = arith.mulf %arg28, %156 : tensor<128x64xf32> loc(#loc88)
      %158 = scf.if %139 -> (tensor<16x64xbf16>) {
        %307 = tt.splat %arg27 : i32 -> tensor<16x1xi32> loc(#loc90)
        %308 = arith.addi %307, %55 : tensor<16x1xi32> loc(#loc90)
        %309 = tt.splat %11 : i32 -> tensor<16x1xi32> loc(#loc91)
        %310 = arith.cmpi slt, %308, %309 : tensor<16x1xi32> loc(#loc91)
        %311 = tt.broadcast %33 : tensor<1x64xi1> -> tensor<16x64xi1> loc(#loc92)
        %312 = tt.broadcast %310 : tensor<16x1xi1> -> tensor<16x64xi1> loc(#loc92)
        %313 = arith.andi %311, %312 : tensor<16x64xi1> loc(#loc92)
        %314 = tt.splat %arg4 : !tt.ptr<bf16> -> tensor<16x64x!tt.ptr<bf16>> loc(#loc93)
        %315 = tt.addptr %314, %137 : tensor<16x64x!tt.ptr<bf16>>, tensor<16x64xi32> loc(#loc93)
        %316 = tt.load %315, %313, %cst_2 : tensor<16x64x!tt.ptr<bf16>> loc(#loc94)
        scf.yield %316 : tensor<16x64xbf16> loc(#loc94)
      } else {
        %307 = tt.splat %arg4 : !tt.ptr<bf16> -> tensor<16x64x!tt.ptr<bf16>> loc(#loc95)
        %308 = tt.addptr %307, %137 : tensor<16x64x!tt.ptr<bf16>>, tensor<16x64xi32> loc(#loc95)
        %309 = tt.load %308 : tensor<16x64x!tt.ptr<bf16>> loc(#loc96)
        scf.yield %309 : tensor<16x64xbf16> loc(#loc96)
      } loc(#loc89)
      %159 = arith.truncf %151 : tensor<128x16xf32> to tensor<128x16xbf16> loc(#loc97)
      %160 = tt.dot %159, %158, %157, inputPrecision = tf32 : tensor<128x16xbf16> * tensor<16x64xbf16> -> tensor<128x64xf32> loc(#loc98)
      %161 = arith.mulf %arg29, %154 : tensor<128xf32> loc(#loc99)
      %162 = arith.addf %161, %152 : tensor<128xf32> loc(#loc100)
      %c1_i32_16 = arith.constant 1 : i32 loc(#loc49)
      %163 = arith.muli %c16_i32, %c1_i32_16 : i32 loc(#loc49)
      %164 = arith.addi %arg27, %163 : i32 loc(#loc49)
      %165 = arith.divsi %164, %c16_i32 : i32 loc(#loc50)
      %166 = tt.addptr %43, %165 : !tt.ptr<i32>, i32 loc(#loc51)
      %167 = tt.load %166 : !tt.ptr<i32> loc(#loc52)
      %168 = arith.muli %167, %arg21 : i32 loc(#loc53)
      %169 = arith.addi %168, %44 : i32 loc(#loc54)
      %170 = tt.splat %169 : i32 -> tensor<64x1xi32> loc(#loc55)
      %171 = arith.addi %170, %48 : tensor<64x1xi32> loc(#loc55)
      %172 = tt.splat %164 : i32 -> tensor<1x16xi32> loc(#loc56)
      %173 = arith.addi %172, %49 : tensor<1x16xi32> loc(#loc56)
      %174 = arith.remsi %173, %cst_8 : tensor<1x16xi32> loc(#loc57)
      %175 = arith.muli %174, %cst_7 : tensor<1x16xi32> loc(#loc58)
      %176 = tt.broadcast %171 : tensor<64x1xi32> -> tensor<64x16xi32> loc(#loc59)
      %177 = tt.broadcast %175 : tensor<1x16xi32> -> tensor<64x16xi32> loc(#loc59)
      %178 = arith.addi %176, %177 : tensor<64x16xi32> loc(#loc59)
      %179 = arith.addi %178, %51 : tensor<64x16xi32> loc(#loc42)
      %180 = arith.muli %167, %arg24 : i32 loc(#loc60)
      %181 = arith.addi %180, %52 : i32 loc(#loc61)
      %182 = tt.splat %181 : i32 -> tensor<1x64xi32> loc(#loc62)
      %183 = arith.addi %182, %54 : tensor<1x64xi32> loc(#loc62)
      %184 = tt.broadcast %183 : tensor<1x64xi32> -> tensor<16x64xi32> loc(#loc46)
      %185 = arith.addi %184, %56 : tensor<16x64xi32> loc(#loc46)
      %186 = arith.addi %164, %c16_i32 : i32 loc(#loc63)
      %187 = arith.cmpi sgt, %186, %11 : i32 loc(#loc64)
      %188 = scf.if %187 -> (tensor<64x16xbf16>) {
        %307 = tt.expand_dims %32 {axis = 1 : i32} : tensor<64xi1> -> tensor<64x1xi1> loc(#loc66)
        %308 = tt.splat %11 : i32 -> tensor<1x16xi32> loc(#loc67)
        %309 = arith.cmpi slt, %173, %308 : tensor<1x16xi32> loc(#loc67)
        %310 = tt.broadcast %307 : tensor<64x1xi1> -> tensor<64x16xi1> loc(#loc68)
        %311 = tt.broadcast %309 : tensor<1x16xi1> -> tensor<64x16xi1> loc(#loc68)
        %312 = arith.andi %310, %311 : tensor<64x16xi1> loc(#loc68)
        %313 = tt.splat %arg3 : !tt.ptr<bf16> -> tensor<64x16x!tt.ptr<bf16>> loc(#loc69)
        %314 = tt.addptr %313, %179 : tensor<64x16x!tt.ptr<bf16>>, tensor<64x16xi32> loc(#loc69)
        %315 = tt.load %314, %312, %cst_3 : tensor<64x16x!tt.ptr<bf16>> loc(#loc70)
        scf.yield %315 : tensor<64x16xbf16> loc(#loc70)
      } else {
        %307 = tt.splat %arg3 : !tt.ptr<bf16> -> tensor<64x16x!tt.ptr<bf16>> loc(#loc71)
        %308 = tt.addptr %307, %179 : tensor<64x16x!tt.ptr<bf16>>, tensor<64x16xi32> loc(#loc71)
        %309 = tt.load %308 : tensor<64x16x!tt.ptr<bf16>> loc(#loc72)
        scf.yield %309 : tensor<64x16xbf16> loc(#loc72)
      } loc(#loc65)
      %189 = tt.dot %41, %188, %cst, inputPrecision = tf32 : tensor<128x64xbf16> * tensor<64x16xbf16> -> tensor<128x16xf32> loc(#loc73)
      %190 = arith.cmpi slt, %173, %57 : tensor<1x16xi32> loc(#loc47)
      %191 = tt.broadcast %190 : tensor<1x16xi1> -> tensor<128x16xi1> loc(#loc74)
      %192 = arith.select %191, %189, %cst_6 : tensor<128x16xi1>, tensor<128x16xf32> loc(#loc74)
      %193 = arith.mulf %192, %58 : tensor<128x16xf32> loc(#loc48)
      %194 = "tt.reduce"(%193) <{axis = 1 : i32}> ({
      ^bb0(%arg31: f32 loc(callsite(#loc1 at #loc76)), %arg32: f32 loc(callsite(#loc1 at #loc76))):
        %307 = arith.maxnumf %arg31, %arg32 : f32 loc(#loc171)
        tt.reduce.return %307 : f32 loc(#loc161)
      }) : (tensor<128x16xf32>) -> tensor<128xf32> loc(#loc161)
      %195 = arith.maxnumf %147, %194 : tensor<128xf32> loc(#loc78)
      %196 = tt.expand_dims %195 {axis = 1 : i32} : tensor<128xf32> -> tensor<128x1xf32> loc(#loc79)
      %197 = tt.broadcast %196 : tensor<128x1xf32> -> tensor<128x16xf32> loc(#loc80)
      %198 = arith.subf %193, %197 : tensor<128x16xf32> loc(#loc80)
      %199 = math.exp %198 : tensor<128x16xf32> loc(#loc81)
      %200 = "tt.reduce"(%199) <{axis = 1 : i32}> ({
      ^bb0(%arg31: f32 loc(callsite(#loc1 at #loc83)), %arg32: f32 loc(callsite(#loc1 at #loc83))):
        %307 = arith.addf %arg31, %arg32 : f32 loc(#loc172)
        tt.reduce.return %307 : f32 loc(#loc164)
      }) : (tensor<128x16xf32>) -> tensor<128xf32> loc(#loc164)
      %201 = arith.subf %147, %195 : tensor<128xf32> loc(#loc85)
      %202 = math.exp %201 : tensor<128xf32> loc(#loc86)
      %203 = tt.expand_dims %202 {axis = 1 : i32} : tensor<128xf32> -> tensor<128x1xf32> loc(#loc87)
      %204 = tt.broadcast %203 : tensor<128x1xf32> -> tensor<128x64xf32> loc(#loc88)
      %205 = arith.mulf %160, %204 : tensor<128x64xf32> loc(#loc88)
      %206 = scf.if %187 -> (tensor<16x64xbf16>) {
        %307 = tt.splat %164 : i32 -> tensor<16x1xi32> loc(#loc90)
        %308 = arith.addi %307, %55 : tensor<16x1xi32> loc(#loc90)
        %309 = tt.splat %11 : i32 -> tensor<16x1xi32> loc(#loc91)
        %310 = arith.cmpi slt, %308, %309 : tensor<16x1xi32> loc(#loc91)
        %311 = tt.broadcast %33 : tensor<1x64xi1> -> tensor<16x64xi1> loc(#loc92)
        %312 = tt.broadcast %310 : tensor<16x1xi1> -> tensor<16x64xi1> loc(#loc92)
        %313 = arith.andi %311, %312 : tensor<16x64xi1> loc(#loc92)
        %314 = tt.splat %arg4 : !tt.ptr<bf16> -> tensor<16x64x!tt.ptr<bf16>> loc(#loc93)
        %315 = tt.addptr %314, %185 : tensor<16x64x!tt.ptr<bf16>>, tensor<16x64xi32> loc(#loc93)
        %316 = tt.load %315, %313, %cst_2 : tensor<16x64x!tt.ptr<bf16>> loc(#loc94)
        scf.yield %316 : tensor<16x64xbf16> loc(#loc94)
      } else {
        %307 = tt.splat %arg4 : !tt.ptr<bf16> -> tensor<16x64x!tt.ptr<bf16>> loc(#loc95)
        %308 = tt.addptr %307, %185 : tensor<16x64x!tt.ptr<bf16>>, tensor<16x64xi32> loc(#loc95)
        %309 = tt.load %308 : tensor<16x64x!tt.ptr<bf16>> loc(#loc96)
        scf.yield %309 : tensor<16x64xbf16> loc(#loc96)
      } loc(#loc89)
      %207 = arith.truncf %199 : tensor<128x16xf32> to tensor<128x16xbf16> loc(#loc97)
      %208 = tt.dot %207, %206, %205, inputPrecision = tf32 : tensor<128x16xbf16> * tensor<16x64xbf16> -> tensor<128x64xf32> loc(#loc98)
      %209 = arith.mulf %162, %202 : tensor<128xf32> loc(#loc99)
      %210 = arith.addf %209, %200 : tensor<128xf32> loc(#loc100)
      %c2_i32 = arith.constant 2 : i32 loc(#loc49)
      %211 = arith.muli %c16_i32, %c2_i32 : i32 loc(#loc49)
      %212 = arith.addi %arg27, %211 : i32 loc(#loc49)
      %213 = arith.divsi %212, %c16_i32 : i32 loc(#loc50)
      %214 = tt.addptr %43, %213 : !tt.ptr<i32>, i32 loc(#loc51)
      %215 = tt.load %214 : !tt.ptr<i32> loc(#loc52)
      %216 = arith.muli %215, %arg21 : i32 loc(#loc53)
      %217 = arith.addi %216, %44 : i32 loc(#loc54)
      %218 = tt.splat %217 : i32 -> tensor<64x1xi32> loc(#loc55)
      %219 = arith.addi %218, %48 : tensor<64x1xi32> loc(#loc55)
      %220 = tt.splat %212 : i32 -> tensor<1x16xi32> loc(#loc56)
      %221 = arith.addi %220, %49 : tensor<1x16xi32> loc(#loc56)
      %222 = arith.remsi %221, %cst_8 : tensor<1x16xi32> loc(#loc57)
      %223 = arith.muli %222, %cst_7 : tensor<1x16xi32> loc(#loc58)
      %224 = tt.broadcast %219 : tensor<64x1xi32> -> tensor<64x16xi32> loc(#loc59)
      %225 = tt.broadcast %223 : tensor<1x16xi32> -> tensor<64x16xi32> loc(#loc59)
      %226 = arith.addi %224, %225 : tensor<64x16xi32> loc(#loc59)
      %227 = arith.addi %226, %51 : tensor<64x16xi32> loc(#loc42)
      %228 = arith.muli %215, %arg24 : i32 loc(#loc60)
      %229 = arith.addi %228, %52 : i32 loc(#loc61)
      %230 = tt.splat %229 : i32 -> tensor<1x64xi32> loc(#loc62)
      %231 = arith.addi %230, %54 : tensor<1x64xi32> loc(#loc62)
      %232 = tt.broadcast %231 : tensor<1x64xi32> -> tensor<16x64xi32> loc(#loc46)
      %233 = arith.addi %232, %56 : tensor<16x64xi32> loc(#loc46)
      %234 = arith.addi %212, %c16_i32 : i32 loc(#loc63)
      %235 = arith.cmpi sgt, %234, %11 : i32 loc(#loc64)
      %236 = scf.if %235 -> (tensor<64x16xbf16>) {
        %307 = tt.expand_dims %32 {axis = 1 : i32} : tensor<64xi1> -> tensor<64x1xi1> loc(#loc66)
        %308 = tt.splat %11 : i32 -> tensor<1x16xi32> loc(#loc67)
        %309 = arith.cmpi slt, %221, %308 : tensor<1x16xi32> loc(#loc67)
        %310 = tt.broadcast %307 : tensor<64x1xi1> -> tensor<64x16xi1> loc(#loc68)
        %311 = tt.broadcast %309 : tensor<1x16xi1> -> tensor<64x16xi1> loc(#loc68)
        %312 = arith.andi %310, %311 : tensor<64x16xi1> loc(#loc68)
        %313 = tt.splat %arg3 : !tt.ptr<bf16> -> tensor<64x16x!tt.ptr<bf16>> loc(#loc69)
        %314 = tt.addptr %313, %227 : tensor<64x16x!tt.ptr<bf16>>, tensor<64x16xi32> loc(#loc69)
        %315 = tt.load %314, %312, %cst_3 : tensor<64x16x!tt.ptr<bf16>> loc(#loc70)
        scf.yield %315 : tensor<64x16xbf16> loc(#loc70)
      } else {
        %307 = tt.splat %arg3 : !tt.ptr<bf16> -> tensor<64x16x!tt.ptr<bf16>> loc(#loc71)
        %308 = tt.addptr %307, %227 : tensor<64x16x!tt.ptr<bf16>>, tensor<64x16xi32> loc(#loc71)
        %309 = tt.load %308 : tensor<64x16x!tt.ptr<bf16>> loc(#loc72)
        scf.yield %309 : tensor<64x16xbf16> loc(#loc72)
      } loc(#loc65)
      %237 = tt.dot %41, %236, %cst, inputPrecision = tf32 : tensor<128x64xbf16> * tensor<64x16xbf16> -> tensor<128x16xf32> loc(#loc73)
      %238 = arith.cmpi slt, %221, %57 : tensor<1x16xi32> loc(#loc47)
      %239 = tt.broadcast %238 : tensor<1x16xi1> -> tensor<128x16xi1> loc(#loc74)
      %240 = arith.select %239, %237, %cst_6 : tensor<128x16xi1>, tensor<128x16xf32> loc(#loc74)
      %241 = arith.mulf %240, %58 : tensor<128x16xf32> loc(#loc48)
      %242 = "tt.reduce"(%241) <{axis = 1 : i32}> ({
      ^bb0(%arg31: f32 loc(callsite(#loc1 at #loc76)), %arg32: f32 loc(callsite(#loc1 at #loc76))):
        %307 = arith.maxnumf %arg31, %arg32 : f32 loc(#loc171)
        tt.reduce.return %307 : f32 loc(#loc161)
      }) : (tensor<128x16xf32>) -> tensor<128xf32> loc(#loc161)
      %243 = arith.maxnumf %195, %242 : tensor<128xf32> loc(#loc78)
      %244 = tt.expand_dims %243 {axis = 1 : i32} : tensor<128xf32> -> tensor<128x1xf32> loc(#loc79)
      %245 = tt.broadcast %244 : tensor<128x1xf32> -> tensor<128x16xf32> loc(#loc80)
      %246 = arith.subf %241, %245 : tensor<128x16xf32> loc(#loc80)
      %247 = math.exp %246 : tensor<128x16xf32> loc(#loc81)
      %248 = "tt.reduce"(%247) <{axis = 1 : i32}> ({
      ^bb0(%arg31: f32 loc(callsite(#loc1 at #loc83)), %arg32: f32 loc(callsite(#loc1 at #loc83))):
        %307 = arith.addf %arg31, %arg32 : f32 loc(#loc172)
        tt.reduce.return %307 : f32 loc(#loc164)
      }) : (tensor<128x16xf32>) -> tensor<128xf32> loc(#loc164)
      %249 = arith.subf %195, %243 : tensor<128xf32> loc(#loc85)
      %250 = math.exp %249 : tensor<128xf32> loc(#loc86)
      %251 = tt.expand_dims %250 {axis = 1 : i32} : tensor<128xf32> -> tensor<128x1xf32> loc(#loc87)
      %252 = tt.broadcast %251 : tensor<128x1xf32> -> tensor<128x64xf32> loc(#loc88)
      %253 = arith.mulf %208, %252 : tensor<128x64xf32> loc(#loc88)
      %254 = scf.if %235 -> (tensor<16x64xbf16>) {
        %307 = tt.splat %212 : i32 -> tensor<16x1xi32> loc(#loc90)
        %308 = arith.addi %307, %55 : tensor<16x1xi32> loc(#loc90)
        %309 = tt.splat %11 : i32 -> tensor<16x1xi32> loc(#loc91)
        %310 = arith.cmpi slt, %308, %309 : tensor<16x1xi32> loc(#loc91)
        %311 = tt.broadcast %33 : tensor<1x64xi1> -> tensor<16x64xi1> loc(#loc92)
        %312 = tt.broadcast %310 : tensor<16x1xi1> -> tensor<16x64xi1> loc(#loc92)
        %313 = arith.andi %311, %312 : tensor<16x64xi1> loc(#loc92)
        %314 = tt.splat %arg4 : !tt.ptr<bf16> -> tensor<16x64x!tt.ptr<bf16>> loc(#loc93)
        %315 = tt.addptr %314, %233 : tensor<16x64x!tt.ptr<bf16>>, tensor<16x64xi32> loc(#loc93)
        %316 = tt.load %315, %313, %cst_2 : tensor<16x64x!tt.ptr<bf16>> loc(#loc94)
        scf.yield %316 : tensor<16x64xbf16> loc(#loc94)
      } else {
        %307 = tt.splat %arg4 : !tt.ptr<bf16> -> tensor<16x64x!tt.ptr<bf16>> loc(#loc95)
        %308 = tt.addptr %307, %233 : tensor<16x64x!tt.ptr<bf16>>, tensor<16x64xi32> loc(#loc95)
        %309 = tt.load %308 : tensor<16x64x!tt.ptr<bf16>> loc(#loc96)
        scf.yield %309 : tensor<16x64xbf16> loc(#loc96)
      } loc(#loc89)
      %255 = arith.truncf %247 : tensor<128x16xf32> to tensor<128x16xbf16> loc(#loc97)
      %256 = tt.dot %255, %254, %253, inputPrecision = tf32 : tensor<128x16xbf16> * tensor<16x64xbf16> -> tensor<128x64xf32> loc(#loc98)
      %257 = arith.mulf %210, %250 : tensor<128xf32> loc(#loc99)
      %258 = arith.addf %257, %248 : tensor<128xf32> loc(#loc100)
      %c3_i32 = arith.constant 3 : i32 loc(#loc49)
      %259 = arith.muli %c16_i32, %c3_i32 : i32 loc(#loc49)
      %260 = arith.addi %arg27, %259 : i32 loc(#loc49)
      %261 = arith.divsi %260, %c16_i32 : i32 loc(#loc50)
      %262 = tt.addptr %43, %261 : !tt.ptr<i32>, i32 loc(#loc51)
      %263 = tt.load %262 : !tt.ptr<i32> loc(#loc52)
      %264 = arith.muli %263, %arg21 : i32 loc(#loc53)
      %265 = arith.addi %264, %44 : i32 loc(#loc54)
      %266 = tt.splat %265 : i32 -> tensor<64x1xi32> loc(#loc55)
      %267 = arith.addi %266, %48 : tensor<64x1xi32> loc(#loc55)
      %268 = tt.splat %260 : i32 -> tensor<1x16xi32> loc(#loc56)
      %269 = arith.addi %268, %49 : tensor<1x16xi32> loc(#loc56)
      %270 = arith.remsi %269, %cst_8 : tensor<1x16xi32> loc(#loc57)
      %271 = arith.muli %270, %cst_7 : tensor<1x16xi32> loc(#loc58)
      %272 = tt.broadcast %267 : tensor<64x1xi32> -> tensor<64x16xi32> loc(#loc59)
      %273 = tt.broadcast %271 : tensor<1x16xi32> -> tensor<64x16xi32> loc(#loc59)
      %274 = arith.addi %272, %273 : tensor<64x16xi32> loc(#loc59)
      %275 = arith.addi %274, %51 : tensor<64x16xi32> loc(#loc42)
      %276 = arith.muli %263, %arg24 : i32 loc(#loc60)
      %277 = arith.addi %276, %52 : i32 loc(#loc61)
      %278 = tt.splat %277 : i32 -> tensor<1x64xi32> loc(#loc62)
      %279 = arith.addi %278, %54 : tensor<1x64xi32> loc(#loc62)
      %280 = tt.broadcast %279 : tensor<1x64xi32> -> tensor<16x64xi32> loc(#loc46)
      %281 = arith.addi %280, %56 : tensor<16x64xi32> loc(#loc46)
      %282 = arith.addi %260, %c16_i32 : i32 loc(#loc63)
      %283 = arith.cmpi sgt, %282, %11 : i32 loc(#loc64)
      %284 = scf.if %283 -> (tensor<64x16xbf16>) {
        %307 = tt.expand_dims %32 {axis = 1 : i32} : tensor<64xi1> -> tensor<64x1xi1> loc(#loc66)
        %308 = tt.splat %11 : i32 -> tensor<1x16xi32> loc(#loc67)
        %309 = arith.cmpi slt, %269, %308 : tensor<1x16xi32> loc(#loc67)
        %310 = tt.broadcast %307 : tensor<64x1xi1> -> tensor<64x16xi1> loc(#loc68)
        %311 = tt.broadcast %309 : tensor<1x16xi1> -> tensor<64x16xi1> loc(#loc68)
        %312 = arith.andi %310, %311 : tensor<64x16xi1> loc(#loc68)
        %313 = tt.splat %arg3 : !tt.ptr<bf16> -> tensor<64x16x!tt.ptr<bf16>> loc(#loc69)
        %314 = tt.addptr %313, %275 : tensor<64x16x!tt.ptr<bf16>>, tensor<64x16xi32> loc(#loc69)
        %315 = tt.load %314, %312, %cst_3 : tensor<64x16x!tt.ptr<bf16>> loc(#loc70)
        scf.yield %315 : tensor<64x16xbf16> loc(#loc70)
      } else {
        %307 = tt.splat %arg3 : !tt.ptr<bf16> -> tensor<64x16x!tt.ptr<bf16>> loc(#loc71)
        %308 = tt.addptr %307, %275 : tensor<64x16x!tt.ptr<bf16>>, tensor<64x16xi32> loc(#loc71)
        %309 = tt.load %308 : tensor<64x16x!tt.ptr<bf16>> loc(#loc72)
        scf.yield %309 : tensor<64x16xbf16> loc(#loc72)
      } loc(#loc65)
      %285 = tt.dot %41, %284, %cst, inputPrecision = tf32 : tensor<128x64xbf16> * tensor<64x16xbf16> -> tensor<128x16xf32> loc(#loc73)
      %286 = arith.cmpi slt, %269, %57 : tensor<1x16xi32> loc(#loc47)
      %287 = tt.broadcast %286 : tensor<1x16xi1> -> tensor<128x16xi1> loc(#loc74)
      %288 = arith.select %287, %285, %cst_6 : tensor<128x16xi1>, tensor<128x16xf32> loc(#loc74)
      %289 = arith.mulf %288, %58 : tensor<128x16xf32> loc(#loc48)
      %290 = "tt.reduce"(%289) <{axis = 1 : i32}> ({
      ^bb0(%arg31: f32 loc(callsite(#loc1 at #loc76)), %arg32: f32 loc(callsite(#loc1 at #loc76))):
        %307 = arith.maxnumf %arg31, %arg32 : f32 loc(#loc171)
        tt.reduce.return %307 : f32 loc(#loc161)
      }) : (tensor<128x16xf32>) -> tensor<128xf32> loc(#loc161)
      %291 = arith.maxnumf %243, %290 : tensor<128xf32> loc(#loc78)
      %292 = tt.expand_dims %291 {axis = 1 : i32} : tensor<128xf32> -> tensor<128x1xf32> loc(#loc79)
      %293 = tt.broadcast %292 : tensor<128x1xf32> -> tensor<128x16xf32> loc(#loc80)
      %294 = arith.subf %289, %293 : tensor<128x16xf32> loc(#loc80)
      %295 = math.exp %294 : tensor<128x16xf32> loc(#loc81)
      %296 = "tt.reduce"(%295) <{axis = 1 : i32}> ({
      ^bb0(%arg31: f32 loc(callsite(#loc1 at #loc83)), %arg32: f32 loc(callsite(#loc1 at #loc83))):
        %307 = arith.addf %arg31, %arg32 : f32 loc(#loc172)
        tt.reduce.return %307 : f32 loc(#loc164)
      }) : (tensor<128x16xf32>) -> tensor<128xf32> loc(#loc164)
      %297 = arith.subf %243, %291 : tensor<128xf32> loc(#loc85)
      %298 = math.exp %297 : tensor<128xf32> loc(#loc86)
      %299 = tt.expand_dims %298 {axis = 1 : i32} : tensor<128xf32> -> tensor<128x1xf32> loc(#loc87)
      %300 = tt.broadcast %299 : tensor<128x1xf32> -> tensor<128x64xf32> loc(#loc88)
      %301 = arith.mulf %256, %300 : tensor<128x64xf32> loc(#loc88)
      %302 = scf.if %283 -> (tensor<16x64xbf16>) {
        %307 = tt.splat %260 : i32 -> tensor<16x1xi32> loc(#loc90)
        %308 = arith.addi %307, %55 : tensor<16x1xi32> loc(#loc90)
        %309 = tt.splat %11 : i32 -> tensor<16x1xi32> loc(#loc91)
        %310 = arith.cmpi slt, %308, %309 : tensor<16x1xi32> loc(#loc91)
        %311 = tt.broadcast %33 : tensor<1x64xi1> -> tensor<16x64xi1> loc(#loc92)
        %312 = tt.broadcast %310 : tensor<16x1xi1> -> tensor<16x64xi1> loc(#loc92)
        %313 = arith.andi %311, %312 : tensor<16x64xi1> loc(#loc92)
        %314 = tt.splat %arg4 : !tt.ptr<bf16> -> tensor<16x64x!tt.ptr<bf16>> loc(#loc93)
        %315 = tt.addptr %314, %281 : tensor<16x64x!tt.ptr<bf16>>, tensor<16x64xi32> loc(#loc93)
        %316 = tt.load %315, %313, %cst_2 : tensor<16x64x!tt.ptr<bf16>> loc(#loc94)
        scf.yield %316 : tensor<16x64xbf16> loc(#loc94)
      } else {
        %307 = tt.splat %arg4 : !tt.ptr<bf16> -> tensor<16x64x!tt.ptr<bf16>> loc(#loc95)
        %308 = tt.addptr %307, %281 : tensor<16x64x!tt.ptr<bf16>>, tensor<16x64xi32> loc(#loc95)
        %309 = tt.load %308 : tensor<16x64x!tt.ptr<bf16>> loc(#loc96)
        scf.yield %309 : tensor<16x64xbf16> loc(#loc96)
      } loc(#loc89)
      %303 = arith.truncf %295 : tensor<128x16xf32> to tensor<128x16xbf16> loc(#loc97)
      %304 = tt.dot %303, %302, %301, inputPrecision = tf32 : tensor<128x16xbf16> * tensor<16x64xbf16> -> tensor<128x64xf32> loc(#loc98)
      %305 = arith.mulf %258, %298 : tensor<128xf32> loc(#loc99)
      %306 = arith.addf %305, %296 : tensor<128xf32> loc(#loc100)
      scf.yield %304, %306, %291 : tensor<128x64xf32>, tensor<128xf32>, tensor<128xf32> loc(#loc101)
    } {tt.divisibility_arg1 = dense<16> : tensor<1xi32>} loc(#loc49)
    %69:3 = scf.for %arg27 = %66 to %11 step %c16_i32 iter_args(%arg28 = %68#0, %arg29 = %68#1, %arg30 = %68#2) -> (tensor<128x64xf32>, tensor<128xf32>, tensor<128xf32>)  : i32 {
      %117 = arith.divsi %arg27, %c16_i32 : i32 loc(#loc50)
      %118 = tt.addptr %43, %117 : !tt.ptr<i32>, i32 loc(#loc51)
      %119 = tt.load %118 : !tt.ptr<i32> loc(#loc52)
      %120 = arith.muli %119, %arg21 : i32 loc(#loc53)
      %121 = arith.addi %120, %44 : i32 loc(#loc54)
      %122 = tt.splat %121 : i32 -> tensor<64x1xi32> loc(#loc55)
      %123 = arith.addi %122, %48 : tensor<64x1xi32> loc(#loc55)
      %124 = tt.splat %arg27 : i32 -> tensor<1x16xi32> loc(#loc56)
      %125 = arith.addi %124, %49 : tensor<1x16xi32> loc(#loc56)
      %126 = arith.remsi %125, %cst_8 : tensor<1x16xi32> loc(#loc57)
      %127 = arith.muli %126, %cst_7 : tensor<1x16xi32> loc(#loc58)
      %128 = tt.broadcast %123 : tensor<64x1xi32> -> tensor<64x16xi32> loc(#loc59)
      %129 = tt.broadcast %127 : tensor<1x16xi32> -> tensor<64x16xi32> loc(#loc59)
      %130 = arith.addi %128, %129 : tensor<64x16xi32> loc(#loc59)
      %131 = arith.addi %130, %51 : tensor<64x16xi32> loc(#loc42)
      %132 = arith.muli %119, %arg24 : i32 loc(#loc60)
      %133 = arith.addi %132, %52 : i32 loc(#loc61)
      %134 = tt.splat %133 : i32 -> tensor<1x64xi32> loc(#loc62)
      %135 = arith.addi %134, %54 : tensor<1x64xi32> loc(#loc62)
      %136 = tt.broadcast %135 : tensor<1x64xi32> -> tensor<16x64xi32> loc(#loc46)
      %137 = arith.addi %136, %56 : tensor<16x64xi32> loc(#loc46)
      %138 = arith.addi %arg27, %c16_i32 : i32 loc(#loc63)
      %139 = arith.cmpi sgt, %138, %11 : i32 loc(#loc64)
      %140 = scf.if %139 -> (tensor<64x16xbf16>) {
        %163 = tt.expand_dims %32 {axis = 1 : i32} : tensor<64xi1> -> tensor<64x1xi1> loc(#loc66)
        %164 = tt.splat %11 : i32 -> tensor<1x16xi32> loc(#loc67)
        %165 = arith.cmpi slt, %125, %164 : tensor<1x16xi32> loc(#loc67)
        %166 = tt.broadcast %163 : tensor<64x1xi1> -> tensor<64x16xi1> loc(#loc68)
        %167 = tt.broadcast %165 : tensor<1x16xi1> -> tensor<64x16xi1> loc(#loc68)
        %168 = arith.andi %166, %167 : tensor<64x16xi1> loc(#loc68)
        %169 = tt.splat %arg3 : !tt.ptr<bf16> -> tensor<64x16x!tt.ptr<bf16>> loc(#loc69)
        %170 = tt.addptr %169, %131 : tensor<64x16x!tt.ptr<bf16>>, tensor<64x16xi32> loc(#loc69)
        %171 = tt.load %170, %168, %cst_3 : tensor<64x16x!tt.ptr<bf16>> loc(#loc70)
        scf.yield %171 : tensor<64x16xbf16> loc(#loc70)
      } else {
        %163 = tt.splat %arg3 : !tt.ptr<bf16> -> tensor<64x16x!tt.ptr<bf16>> loc(#loc71)
        %164 = tt.addptr %163, %131 : tensor<64x16x!tt.ptr<bf16>>, tensor<64x16xi32> loc(#loc71)
        %165 = tt.load %164 : tensor<64x16x!tt.ptr<bf16>> loc(#loc72)
        scf.yield %165 : tensor<64x16xbf16> loc(#loc72)
      } loc(#loc65)
      %141 = tt.dot %41, %140, %cst, inputPrecision = tf32 : tensor<128x64xbf16> * tensor<64x16xbf16> -> tensor<128x16xf32> loc(#loc73)
      %142 = arith.cmpi slt, %125, %57 : tensor<1x16xi32> loc(#loc47)
      %143 = tt.broadcast %142 : tensor<1x16xi1> -> tensor<128x16xi1> loc(#loc74)
      %144 = arith.select %143, %141, %cst_6 : tensor<128x16xi1>, tensor<128x16xf32> loc(#loc74)
      %145 = arith.mulf %144, %58 : tensor<128x16xf32> loc(#loc48)
      %146 = "tt.reduce"(%145) <{axis = 1 : i32}> ({
      ^bb0(%arg31: f32 loc(callsite(#loc1 at #loc76)), %arg32: f32 loc(callsite(#loc1 at #loc76))):
        %163 = arith.maxnumf %arg31, %arg32 : f32 loc(#loc171)
        tt.reduce.return %163 : f32 loc(#loc161)
      }) : (tensor<128x16xf32>) -> tensor<128xf32> loc(#loc161)
      %147 = arith.maxnumf %arg30, %146 : tensor<128xf32> loc(#loc78)
      %148 = tt.expand_dims %147 {axis = 1 : i32} : tensor<128xf32> -> tensor<128x1xf32> loc(#loc79)
      %149 = tt.broadcast %148 : tensor<128x1xf32> -> tensor<128x16xf32> loc(#loc80)
      %150 = arith.subf %145, %149 : tensor<128x16xf32> loc(#loc80)
      %151 = math.exp %150 : tensor<128x16xf32> loc(#loc81)
      %152 = "tt.reduce"(%151) <{axis = 1 : i32}> ({
      ^bb0(%arg31: f32 loc(callsite(#loc1 at #loc83)), %arg32: f32 loc(callsite(#loc1 at #loc83))):
        %163 = arith.addf %arg31, %arg32 : f32 loc(#loc172)
        tt.reduce.return %163 : f32 loc(#loc164)
      }) : (tensor<128x16xf32>) -> tensor<128xf32> loc(#loc164)
      %153 = arith.subf %arg30, %147 : tensor<128xf32> loc(#loc85)
      %154 = math.exp %153 : tensor<128xf32> loc(#loc86)
      %155 = tt.expand_dims %154 {axis = 1 : i32} : tensor<128xf32> -> tensor<128x1xf32> loc(#loc87)
      %156 = tt.broadcast %155 : tensor<128x1xf32> -> tensor<128x64xf32> loc(#loc88)
      %157 = arith.mulf %arg28, %156 : tensor<128x64xf32> loc(#loc88)
      %158 = scf.if %139 -> (tensor<16x64xbf16>) {
        %163 = tt.splat %arg27 : i32 -> tensor<16x1xi32> loc(#loc90)
        %164 = arith.addi %163, %55 : tensor<16x1xi32> loc(#loc90)
        %165 = tt.splat %11 : i32 -> tensor<16x1xi32> loc(#loc91)
        %166 = arith.cmpi slt, %164, %165 : tensor<16x1xi32> loc(#loc91)
        %167 = tt.broadcast %33 : tensor<1x64xi1> -> tensor<16x64xi1> loc(#loc92)
        %168 = tt.broadcast %166 : tensor<16x1xi1> -> tensor<16x64xi1> loc(#loc92)
        %169 = arith.andi %167, %168 : tensor<16x64xi1> loc(#loc92)
        %170 = tt.splat %arg4 : !tt.ptr<bf16> -> tensor<16x64x!tt.ptr<bf16>> loc(#loc93)
        %171 = tt.addptr %170, %137 : tensor<16x64x!tt.ptr<bf16>>, tensor<16x64xi32> loc(#loc93)
        %172 = tt.load %171, %169, %cst_2 : tensor<16x64x!tt.ptr<bf16>> loc(#loc94)
        scf.yield %172 : tensor<16x64xbf16> loc(#loc94)
      } else {
        %163 = tt.splat %arg4 : !tt.ptr<bf16> -> tensor<16x64x!tt.ptr<bf16>> loc(#loc95)
        %164 = tt.addptr %163, %137 : tensor<16x64x!tt.ptr<bf16>>, tensor<16x64xi32> loc(#loc95)
        %165 = tt.load %164 : tensor<16x64x!tt.ptr<bf16>> loc(#loc96)
        scf.yield %165 : tensor<16x64xbf16> loc(#loc96)
      } loc(#loc89)
      %159 = arith.truncf %151 : tensor<128x16xf32> to tensor<128x16xbf16> loc(#loc97)
      %160 = tt.dot %159, %158, %157, inputPrecision = tf32 : tensor<128x16xbf16> * tensor<16x64xbf16> -> tensor<128x64xf32> loc(#loc98)
      %161 = arith.mulf %arg29, %154 : tensor<128xf32> loc(#loc99)
      %162 = arith.addf %161, %152 : tensor<128xf32> loc(#loc100)
      scf.yield %160, %162, %147 : tensor<128x64xf32>, tensor<128xf32>, tensor<128xf32> loc(#loc101)
    } {tt.divisibility_arg1 = dense<16> : tensor<1xi32>} loc(#loc49)
    %70 = tt.splat %arg15 : i32 -> tensor<1x64xi32> loc(#loc102)
    %71 = arith.muli %26, %70 : tensor<1x64xi32> loc(#loc102)
    %72 = arith.muli %3, %arg16 : i32 loc(#loc103)
    %73 = tt.splat %72 : i32 -> tensor<1x64xi32> loc(#loc104)
    %74 = arith.addi %71, %73 : tensor<1x64xi32> loc(#loc104)
    %75 = tt.expand_dims %14 {axis = 1 : i32} : tensor<64xi32> -> tensor<64x1xi32> loc(#loc105)
    %76 = tt.broadcast %74 : tensor<1x64xi32> -> tensor<64x64xi32> loc(#loc106)
    %77 = tt.broadcast %75 : tensor<64x1xi32> -> tensor<64x64xi32> loc(#loc106)
    %78 = arith.addi %76, %77 : tensor<64x64xi32> loc(#loc106)
    %79 = tt.splat %arg17 : i32 -> tensor<64x1xi32> loc(#loc107)
    %80 = arith.muli %75, %79 : tensor<64x1xi32> loc(#loc107)
    %81 = arith.muli %3, %arg18 : i32 loc(#loc108)
    %82 = tt.splat %81 : i32 -> tensor<64x1xi32> loc(#loc109)
    %83 = arith.addi %80, %82 : tensor<64x1xi32> loc(#loc109)
    %84 = tt.broadcast %83 : tensor<64x1xi32> -> tensor<64x64xi32> loc(#loc110)
    %85 = tt.broadcast %26 : tensor<1x64xi32> -> tensor<64x64xi32> loc(#loc110)
    %86 = arith.addi %84, %85 : tensor<64x64xi32> loc(#loc110)
    %87 = tt.splat %arg1 : !tt.ptr<bf16> -> tensor<64x64x!tt.ptr<bf16>> loc(#loc111)
    %88 = tt.addptr %87, %78 : tensor<64x64x!tt.ptr<bf16>>, tensor<64x64xi32> loc(#loc111)
    %89 = tt.splat %arg2 : !tt.ptr<bf16> -> tensor<64x64x!tt.ptr<bf16>> loc(#loc112)
    %90 = tt.addptr %89, %86 : tensor<64x64x!tt.ptr<bf16>>, tensor<64x64xi32> loc(#loc112)
    %91 = arith.cmpi slt, %12, %10 : i32 loc(#loc113)
    %92 = arith.extui %91 : i1 to i32 loc(#loc114)
    %93 = arith.addi %2, %c1_i32 : i32 loc(#loc115)
    %94 = arith.muli %92, %93 : i32 loc(#loc116)
    %95 = arith.muli %94, %c128_i32 : i32 loc(#loc117)
    %96 = tt.expand_dims %32 {axis = 1 : i32} : tensor<64xi1> -> tensor<64x1xi1> loc(#loc118)
    %97 = tt.splat %10 : i32 -> tensor<1x64xi32> loc(#loc119)
    %98 = tt.broadcast %96 : tensor<64x1xi1> -> tensor<64x64xi1> loc(#loc120)
    %99 = tt.splat %arg6 : f32 -> tensor<128x64xf32> loc(#loc121)
    %100 = tt.broadcast %18 : tensor<128x1xi32> -> tensor<128x64xi32> loc(#loc122)
    %101 = tt.splat %10 : i32 -> tensor<64x1xi32> loc(#loc123)
    %102 = tt.broadcast %33 : tensor<1x64xi1> -> tensor<64x64xi1> loc(#loc124)
    %103:3 = scf.for %arg27 = %c0_i32 to %95 step %c64_i32 iter_args(%arg28 = %69#0, %arg29 = %69#1, %arg30 = %69#2) -> (tensor<128x64xf32>, tensor<128xf32>, tensor<128xf32>)  : i32 {
      %117 = tt.splat %arg27 : i32 -> tensor<1x64xi32> loc(#loc126)
      %118 = arith.addi %117, %26 : tensor<1x64xi32> loc(#loc126)
      %119 = arith.cmpi slt, %118, %97 : tensor<1x64xi32> loc(#loc119)
      %120 = tt.broadcast %119 : tensor<1x64xi1> -> tensor<64x64xi1> loc(#loc120)
      %121 = arith.andi %98, %120 : tensor<64x64xi1> loc(#loc120)
      %122 = arith.addi %7, %arg27 : i32 loc(#loc127)
      %123 = arith.muli %122, %arg15 : i32 loc(#loc128)
      %124 = tt.splat %123 : i32 -> tensor<64x64xi32> loc(#loc129)
      %125 = tt.addptr %88, %124 : tensor<64x64x!tt.ptr<bf16>>, tensor<64x64xi32> loc(#loc129)
      %126 = tt.load %125, %121, %cst_1 : tensor<64x64x!tt.ptr<bf16>> loc(#loc130)
      %127 = tt.dot %41, %126, %cst_0, inputPrecision = tf32 : tensor<128x64xbf16> * tensor<64x64xbf16> -> tensor<128x64xf32> loc(#loc131)
      %128 = arith.mulf %127, %99 : tensor<128x64xf32> loc(#loc121)
      %129 = tt.broadcast %118 : tensor<1x64xi32> -> tensor<128x64xi32> loc(#loc122)
      %130 = arith.cmpi sge, %100, %129 : tensor<128x64xi32> loc(#loc122)
      %131 = arith.select %130, %128, %cst_5 : tensor<128x64xi1>, tensor<128x64xf32> loc(#loc132)
      %132 = "tt.reduce"(%131) <{axis = 1 : i32}> ({
      ^bb0(%arg31: f32 loc(callsite(#loc1 at #loc133)), %arg32: f32 loc(callsite(#loc1 at #loc133))):
        %157 = arith.maxnumf %arg31, %arg32 : f32 loc(#loc173)
        tt.reduce.return %157 : f32 loc(#loc167)
      }) : (tensor<128x64xf32>) -> tensor<128xf32> loc(#loc167)
      %133 = arith.maxnumf %arg30, %132 : tensor<128xf32> loc(#loc134)
      %134 = tt.expand_dims %133 {axis = 1 : i32} : tensor<128xf32> -> tensor<128x1xf32> loc(#loc135)
      %135 = tt.broadcast %134 : tensor<128x1xf32> -> tensor<128x64xf32> loc(#loc136)
      %136 = arith.subf %131, %135 : tensor<128x64xf32> loc(#loc136)
      %137 = math.exp %136 : tensor<128x64xf32> loc(#loc137)
      %138 = "tt.reduce"(%137) <{axis = 1 : i32}> ({
      ^bb0(%arg31: f32 loc(callsite(#loc1 at #loc138)), %arg32: f32 loc(callsite(#loc1 at #loc138))):
        %157 = arith.addf %arg31, %arg32 : f32 loc(#loc174)
        tt.reduce.return %157 : f32 loc(#loc169)
      }) : (tensor<128x64xf32>) -> tensor<128xf32> loc(#loc169)
      %139 = arith.subf %arg30, %133 : tensor<128xf32> loc(#loc139)
      %140 = math.exp %139 : tensor<128xf32> loc(#loc140)
      %141 = tt.expand_dims %140 {axis = 1 : i32} : tensor<128xf32> -> tensor<128x1xf32> loc(#loc141)
      %142 = tt.broadcast %141 : tensor<128x1xf32> -> tensor<128x64xf32> loc(#loc142)
      %143 = arith.mulf %arg28, %142 : tensor<128x64xf32> loc(#loc142)
      %144 = tt.splat %arg27 : i32 -> tensor<64x1xi32> loc(#loc143)
      %145 = arith.addi %144, %75 : tensor<64x1xi32> loc(#loc143)
      %146 = arith.cmpi slt, %145, %101 : tensor<64x1xi32> loc(#loc123)
      %147 = tt.broadcast %146 : tensor<64x1xi1> -> tensor<64x64xi1> loc(#loc124)
      %148 = arith.andi %102, %147 : tensor<64x64xi1> loc(#loc124)
      %149 = arith.muli %122, %arg17 : i32 loc(#loc144)
      %150 = tt.splat %149 : i32 -> tensor<64x64xi32> loc(#loc145)
      %151 = tt.addptr %90, %150 : tensor<64x64x!tt.ptr<bf16>>, tensor<64x64xi32> loc(#loc145)
      %152 = tt.load %151, %148, %cst_1 : tensor<64x64x!tt.ptr<bf16>> loc(#loc146)
      %153 = arith.truncf %137 : tensor<128x64xf32> to tensor<128x64xbf16> loc(#loc147)
      %154 = tt.dot %153, %152, %143, inputPrecision = tf32 : tensor<128x64xbf16> * tensor<64x64xbf16> -> tensor<128x64xf32> loc(#loc148)
      %155 = arith.mulf %arg29, %140 : tensor<128xf32> loc(#loc149)
      %156 = arith.addf %155, %138 : tensor<128xf32> loc(#loc150)
      scf.yield %154, %156, %133 : tensor<128x64xf32>, tensor<128xf32>, tensor<128xf32> loc(#loc151)
    } {tt.divisibility_arg1 = dense<64> : tensor<1xi32>, tt.loop_unroll_factor = 1 : i32} loc(#loc125)
    %104 = tt.expand_dims %103#1 {axis = 1 : i32} : tensor<128xf32> -> tensor<128x1xf32> loc(#loc152)
    %105 = tt.broadcast %104 : tensor<128x1xf32> -> tensor<128x64xf32> loc(#loc153)
    %106 = arith.divf %103#0, %105 : tensor<128x64xf32> loc(#loc153)
    %107 = tt.splat %arg19 : i32 -> tensor<128x1xi32> loc(#loc154)
    %108 = arith.muli %20, %107 : tensor<128x1xi32> loc(#loc154)
    %109 = arith.muli %1, %arg20 : i32 loc(#loc155)
    %110 = tt.splat %109 : i32 -> tensor<128x1xi32> loc(#loc156)
    %111 = arith.addi %108, %110 : tensor<128x1xi32> loc(#loc156)
    %112 = tt.broadcast %111 : tensor<128x1xi32> -> tensor<128x64xi32> loc(#loc157)
    %113 = arith.addi %112, %28 : tensor<128x64xi32> loc(#loc157)
    %114 = tt.splat %arg11 : !tt.ptr<bf16> -> tensor<128x64x!tt.ptr<bf16>> loc(#loc158)
    %115 = tt.addptr %114, %113 : tensor<128x64x!tt.ptr<bf16>>, tensor<128x64xi32> loc(#loc158)
    %116 = arith.truncf %106 : tensor<128x64xf32> to tensor<128x64xbf16> loc(#loc159)
    tt.store %115, %116, %38 : tensor<128x64x!tt.ptr<bf16>> loc(#loc159)
    tt.return loc(#loc160)
  } loc(#loc)
} loc(#loc)
#loc2 = loc("/data/home/scyb494/.conda/envs/verl/lib/python3.10/site-packages/vllm/attention/ops/prefix_prefill.py":86:30)
#loc3 = loc("/data/home/scyb494/.conda/envs/verl/lib/python3.10/site-packages/vllm/attention/ops/prefix_prefill.py":87:29)
#loc4 = loc("/data/home/scyb494/.conda/envs/verl/lib/python3.10/site-packages/vllm/attention/ops/prefix_prefill.py":88:28)
#loc5 = loc("/data/home/scyb494/.conda/envs/verl/lib/python3.10/site-packages/vllm/attention/ops/prefix_prefill.py":90:30)
#loc6 = loc("/data/home/scyb494/.conda/envs/verl/lib/python3.10/site-packages/vllm/attention/ops/prefix_prefill.py":92:43)
#loc7 = loc("/data/home/scyb494/.conda/envs/verl/lib/python3.10/site-packages/vllm/attention/ops/prefix_prefill.py":92:32)
#loc8 = loc("/data/home/scyb494/.conda/envs/verl/lib/python3.10/site-packages/vllm/attention/ops/prefix_prefill.py":93:57)
#loc9 = loc("/data/home/scyb494/.conda/envs/verl/lib/python3.10/site-packages/vllm/attention/ops/prefix_prefill.py":93:43)
#loc10 = loc("/data/home/scyb494/.conda/envs/verl/lib/python3.10/site-packages/vllm/attention/ops/prefix_prefill.py":94:68)
#loc11 = loc("/data/home/scyb494/.conda/envs/verl/lib/python3.10/site-packages/vllm/attention/ops/prefix_prefill.py":94:42)
#loc12 = loc("/data/home/scyb494/.conda/envs/verl/lib/python3.10/site-packages/vllm/attention/ops/prefix_prefill.py":96:27)
#loc13 = loc("/data/home/scyb494/.conda/envs/verl/lib/python3.10/site-packages/vllm/attention/ops/prefix_prefill.py":97:44)
#loc14 = loc("/data/home/scyb494/.conda/envs/verl/lib/python3.10/site-packages/vllm/attention/ops/prefix_prefill.py":104:32)
#loc15 = loc("/data/home/scyb494/.conda/envs/verl/lib/python3.10/site-packages/vllm/attention/ops/prefix_prefill.py":108:29)
#loc16 = loc("/data/home/scyb494/.conda/envs/verl/lib/python3.10/site-packages/vllm/attention/ops/prefix_prefill.py":110:26)
#loc17 = loc("/data/home/scyb494/.conda/envs/verl/lib/python3.10/site-packages/vllm/attention/ops/prefix_prefill.py":114:46)
#loc18 = loc("/data/home/scyb494/.conda/envs/verl/lib/python3.10/site-packages/vllm/attention/ops/prefix_prefill.py":114:33)
#loc19 = loc("/data/home/scyb494/.conda/envs/verl/lib/python3.10/site-packages/vllm/attention/ops/prefix_prefill.py":116:52)
#loc20 = loc("/data/home/scyb494/.conda/envs/verl/lib/python3.10/site-packages/vllm/attention/ops/prefix_prefill.py":116:45)
#loc21 = loc("/data/home/scyb494/.conda/envs/verl/lib/python3.10/site-packages/vllm/attention/ops/prefix_prefill.py":116:64)
#loc22 = loc("/data/home/scyb494/.conda/envs/verl/lib/python3.10/site-packages/vllm/attention/ops/prefix_prefill.py":117:24)
#loc23 = loc("/data/home/scyb494/.conda/envs/verl/lib/python3.10/site-packages/vllm/attention/ops/prefix_prefill.py":117:13)
#loc24 = loc("/data/home/scyb494/.conda/envs/verl/lib/python3.10/site-packages/vllm/attention/ops/prefix_prefill.py":117:43)
#loc25 = loc("/data/home/scyb494/.conda/envs/verl/lib/python3.10/site-packages/vllm/attention/ops/prefix_prefill.py":117:36)
#loc26 = loc("/data/home/scyb494/.conda/envs/verl/lib/python3.10/site-packages/vllm/attention/ops/prefix_prefill.py":120:44)
#loc27 = loc("/data/home/scyb494/.conda/envs/verl/lib/python3.10/site-packages/vllm/attention/ops/prefix_prefill.py":121:8)
#loc28 = loc("/data/home/scyb494/.conda/envs/verl/lib/python3.10/site-packages/vllm/attention/ops/prefix_prefill.py":121:14)
#loc29 = loc("/data/home/scyb494/.conda/envs/verl/lib/python3.10/site-packages/vllm/attention/ops/prefix_prefill.py":124:30)
#loc30 = loc("/data/home/scyb494/.conda/envs/verl/lib/python3.10/site-packages/vllm/attention/ops/prefix_prefill.py":125:35)
#loc31 = loc("/data/home/scyb494/.conda/envs/verl/lib/python3.10/site-packages/vllm/attention/ops/prefix_prefill.py":125:17)
#loc32 = loc("/data/home/scyb494/.conda/envs/verl/lib/python3.10/site-packages/vllm/attention/ops/prefix_prefill.py":123:20)
#loc33 = loc("/data/home/scyb494/.conda/envs/verl/lib/python3.10/site-packages/vllm/attention/ops/prefix_prefill.py":123:16)
#loc34 = loc("/data/home/scyb494/.conda/envs/verl/lib/python3.10/site-packages/vllm/attention/ops/prefix_prefill.py":138:41)
#loc35 = loc("/data/home/scyb494/.conda/envs/verl/lib/python3.10/site-packages/vllm/attention/ops/prefix_prefill.py":138:29)
#loc36 = loc("/data/home/scyb494/.conda/envs/verl/lib/python3.10/site-packages/vllm/attention/ops/prefix_prefill.py":142:60)
#loc37 = loc("/data/home/scyb494/.conda/envs/verl/lib/python3.10/site-packages/vllm/attention/ops/prefix_prefill.py":143:20)
#loc38 = loc("/data/home/scyb494/.conda/envs/verl/lib/python3.10/site-packages/vllm/attention/ops/prefix_prefill.py":143:32)
#loc39 = loc("/data/home/scyb494/.conda/envs/verl/lib/python3.10/site-packages/vllm/attention/ops/prefix_prefill.py":143:37)
#loc40 = loc("/data/home/scyb494/.conda/envs/verl/lib/python3.10/site-packages/vllm/attention/ops/prefix_prefill.py":144:34)
#loc41 = loc("/data/home/scyb494/.conda/envs/verl/lib/python3.10/site-packages/vllm/attention/ops/prefix_prefill.py":145:31)
#loc42 = loc("/data/home/scyb494/.conda/envs/verl/lib/python3.10/site-packages/vllm/attention/ops/prefix_prefill.py":145:12)
#loc43 = loc("/data/home/scyb494/.conda/envs/verl/lib/python3.10/site-packages/vllm/attention/ops/prefix_prefill.py":149:31)
#loc44 = loc("/data/home/scyb494/.conda/envs/verl/lib/python3.10/site-packages/vllm/attention/ops/prefix_prefill.py":150:35)
#loc45 = loc("/data/home/scyb494/.conda/envs/verl/lib/python3.10/site-packages/vllm/attention/ops/prefix_prefill.py":151:27)
#loc46 = loc("/data/home/scyb494/.conda/envs/verl/lib/python3.10/site-packages/vllm/attention/ops/prefix_prefill.py":151:17)
#loc47 = loc("/data/home/scyb494/.conda/envs/verl/lib/python3.10/site-packages/vllm/attention/ops/prefix_prefill.py":170:55)
#loc48 = loc("/data/home/scyb494/.conda/envs/verl/lib/python3.10/site-packages/vllm/attention/ops/prefix_prefill.py":172:14)
#loc49 = loc("/data/home/scyb494/.conda/envs/verl/lib/python3.10/site-packages/vllm/attention/ops/prefix_prefill.py":135:28)
#loc50 = loc("/data/home/scyb494/.conda/envs/verl/lib/python3.10/site-packages/vllm/attention/ops/prefix_prefill.py":139:33)
#loc51 = loc("/data/home/scyb494/.conda/envs/verl/lib/python3.10/site-packages/vllm/attention/ops/prefix_prefill.py":139:21)
#loc52 = loc("/data/home/scyb494/.conda/envs/verl/lib/python3.10/site-packages/vllm/attention/ops/prefix_prefill.py":138:21)
#loc53 = loc("/data/home/scyb494/.conda/envs/verl/lib/python3.10/site-packages/vllm/attention/ops/prefix_prefill.py":142:26)
#loc54 = loc("/data/home/scyb494/.conda/envs/verl/lib/python3.10/site-packages/vllm/attention/ops/prefix_prefill.py":142:46)
#loc55 = loc("/data/home/scyb494/.conda/envs/verl/lib/python3.10/site-packages/vllm/attention/ops/prefix_prefill.py":143:12)
#loc56 = loc("/data/home/scyb494/.conda/envs/verl/lib/python3.10/site-packages/vllm/attention/ops/prefix_prefill.py":144:24)
#loc57 = loc("/data/home/scyb494/.conda/envs/verl/lib/python3.10/site-packages/vllm/attention/ops/prefix_prefill.py":144:46)
#loc58 = loc("/data/home/scyb494/.conda/envs/verl/lib/python3.10/site-packages/vllm/attention/ops/prefix_prefill.py":144:60)
#loc59 = loc("/data/home/scyb494/.conda/envs/verl/lib/python3.10/site-packages/vllm/attention/ops/prefix_prefill.py":144:12)
#loc60 = loc("/data/home/scyb494/.conda/envs/verl/lib/python3.10/site-packages/vllm/attention/ops/prefix_prefill.py":148:31)
#loc61 = loc("/data/home/scyb494/.conda/envs/verl/lib/python3.10/site-packages/vllm/attention/ops/prefix_prefill.py":149:17)
#loc62 = loc("/data/home/scyb494/.conda/envs/verl/lib/python3.10/site-packages/vllm/attention/ops/prefix_prefill.py":150:17)
#loc63 = loc("/data/home/scyb494/.conda/envs/verl/lib/python3.10/site-packages/vllm/attention/ops/prefix_prefill.py":153:21)
#loc64 = loc("/data/home/scyb494/.conda/envs/verl/lib/python3.10/site-packages/vllm/attention/ops/prefix_prefill.py":153:34)
#loc65 = loc("/data/home/scyb494/.conda/envs/verl/lib/python3.10/site-packages/vllm/attention/ops/prefix_prefill.py":153:11)
#loc66 = loc("/data/home/scyb494/.conda/envs/verl/lib/python3.10/site-packages/vllm/attention/ops/prefix_prefill.py":157:30)
#loc67 = loc("/data/home/scyb494/.conda/envs/verl/lib/python3.10/site-packages/vllm/attention/ops/prefix_prefill.py":158:50)
#loc68 = loc("/data/home/scyb494/.conda/envs/verl/lib/python3.10/site-packages/vllm/attention/ops/prefix_prefill.py":158:17)
#loc69 = loc("/data/home/scyb494/.conda/envs/verl/lib/python3.10/site-packages/vllm/attention/ops/prefix_prefill.py":156:26)
#loc70 = loc("/data/home/scyb494/.conda/envs/verl/lib/python3.10/site-packages/vllm/attention/ops/prefix_prefill.py":156:16)
#loc71 = loc("/data/home/scyb494/.conda/envs/verl/lib/python3.10/site-packages/vllm/attention/ops/prefix_prefill.py":161:39)
#loc72 = loc("/data/home/scyb494/.conda/envs/verl/lib/python3.10/site-packages/vllm/attention/ops/prefix_prefill.py":161:29)
#loc73 = loc("/data/home/scyb494/.conda/envs/verl/lib/python3.10/site-packages/vllm/attention/ops/prefix_prefill.py":169:23)
#loc74 = loc("/data/home/scyb494/.conda/envs/verl/lib/python3.10/site-packages/vllm/attention/ops/prefix_prefill.py":171:22)
#loc75 = loc("/data/home/scyb494/.conda/envs/verl/lib/python3.10/site-packages/triton/language/standard.py":184:40)
#loc77 = loc("/data/home/scyb494/.conda/envs/verl/lib/python3.10/site-packages/triton/language/standard.py":163:27)
#loc78 = loc("/data/home/scyb494/.conda/envs/verl/lib/python3.10/site-packages/vllm/attention/ops/prefix_prefill.py":190:31)
#loc79 = loc("/data/home/scyb494/.conda/envs/verl/lib/python3.10/site-packages/vllm/attention/ops/prefix_prefill.py":191:29)
#loc80 = loc("/data/home/scyb494/.conda/envs/verl/lib/python3.10/site-packages/vllm/attention/ops/prefix_prefill.py":191:24)
#loc81 = loc("/data/home/scyb494/.conda/envs/verl/lib/python3.10/site-packages/vllm/attention/ops/prefix_prefill.py":191:19)
#loc82 = loc("/data/home/scyb494/.conda/envs/verl/lib/python3.10/site-packages/triton/language/standard.py":267:36)
#loc84 = loc("/data/home/scyb494/.conda/envs/verl/lib/python3.10/site-packages/triton/language/standard.py":256:15)
#loc85 = loc("/data/home/scyb494/.conda/envs/verl/lib/python3.10/site-packages/vllm/attention/ops/prefix_prefill.py":193:29)
#loc86 = loc("/data/home/scyb494/.conda/envs/verl/lib/python3.10/site-packages/vllm/attention/ops/prefix_prefill.py":193:23)
#loc87 = loc("/data/home/scyb494/.conda/envs/verl/lib/python3.10/site-packages/vllm/attention/ops/prefix_prefill.py":194:26)
#loc88 = loc("/data/home/scyb494/.conda/envs/verl/lib/python3.10/site-packages/vllm/attention/ops/prefix_prefill.py":194:20)
#loc89 = loc("/data/home/scyb494/.conda/envs/verl/lib/python3.10/site-packages/vllm/attention/ops/prefix_prefill.py":197:11)
#loc90 = loc("/data/home/scyb494/.conda/envs/verl/lib/python3.10/site-packages/vllm/attention/ops/prefix_prefill.py":202:28)
#loc91 = loc("/data/home/scyb494/.conda/envs/verl/lib/python3.10/site-packages/vllm/attention/ops/prefix_prefill.py":202:50)
#loc92 = loc("/data/home/scyb494/.conda/envs/verl/lib/python3.10/site-packages/vllm/attention/ops/prefix_prefill.py":202:17)
#loc93 = loc("/data/home/scyb494/.conda/envs/verl/lib/python3.10/site-packages/vllm/attention/ops/prefix_prefill.py":200:26)
#loc94 = loc("/data/home/scyb494/.conda/envs/verl/lib/python3.10/site-packages/vllm/attention/ops/prefix_prefill.py":200:16)
#loc95 = loc("/data/home/scyb494/.conda/envs/verl/lib/python3.10/site-packages/vllm/attention/ops/prefix_prefill.py":205:39)
#loc96 = loc("/data/home/scyb494/.conda/envs/verl/lib/python3.10/site-packages/vllm/attention/ops/prefix_prefill.py":205:29)
#loc97 = loc("/data/home/scyb494/.conda/envs/verl/lib/python3.10/site-packages/vllm/attention/ops/prefix_prefill.py":211:17)
#loc98 = loc("/data/home/scyb494/.conda/envs/verl/lib/python3.10/site-packages/vllm/attention/ops/prefix_prefill.py":213:24)
#loc99 = loc("/data/home/scyb494/.conda/envs/verl/lib/python3.10/site-packages/vllm/attention/ops/prefix_prefill.py":215:20)
#loc100 = loc("/data/home/scyb494/.conda/envs/verl/lib/python3.10/site-packages/vllm/attention/ops/prefix_prefill.py":215:28)
#loc101 = loc("/data/home/scyb494/.conda/envs/verl/lib/python3.10/site-packages/vllm/attention/ops/prefix_prefill.py":216:8)
#loc102 = loc("/data/home/scyb494/.conda/envs/verl/lib/python3.10/site-packages/vllm/attention/ops/prefix_prefill.py":218:31)
#loc103 = loc("/data/home/scyb494/.conda/envs/verl/lib/python3.10/site-packages/vllm/attention/ops/prefix_prefill.py":218:58)
#loc104 = loc("/data/home/scyb494/.conda/envs/verl/lib/python3.10/site-packages/vllm/attention/ops/prefix_prefill.py":218:44)
#loc105 = loc("/data/home/scyb494/.conda/envs/verl/lib/python3.10/site-packages/vllm/attention/ops/prefix_prefill.py":219:20)
#loc106 = loc("/data/home/scyb494/.conda/envs/verl/lib/python3.10/site-packages/vllm/attention/ops/prefix_prefill.py":219:13)
#loc107 = loc("/data/home/scyb494/.conda/envs/verl/lib/python3.10/site-packages/vllm/attention/ops/prefix_prefill.py":220:31)
#loc108 = loc("/data/home/scyb494/.conda/envs/verl/lib/python3.10/site-packages/vllm/attention/ops/prefix_prefill.py":220:58)
#loc109 = loc("/data/home/scyb494/.conda/envs/verl/lib/python3.10/site-packages/vllm/attention/ops/prefix_prefill.py":220:44)
#loc110 = loc("/data/home/scyb494/.conda/envs/verl/lib/python3.10/site-packages/vllm/attention/ops/prefix_prefill.py":221:13)
#loc111 = loc("/data/home/scyb494/.conda/envs/verl/lib/python3.10/site-packages/vllm/attention/ops/prefix_prefill.py":222:17)
#loc112 = loc("/data/home/scyb494/.conda/envs/verl/lib/python3.10/site-packages/vllm/attention/ops/prefix_prefill.py":223:17)
#loc113 = loc("/data/home/scyb494/.conda/envs/verl/lib/python3.10/site-packages/vllm/attention/ops/prefix_prefill.py":226:44)
#loc114 = loc("/data/home/scyb494/.conda/envs/verl/lib/python3.10/site-packages/vllm/attention/ops/prefix_prefill.py":226:68)
#loc115 = loc("/data/home/scyb494/.conda/envs/verl/lib/python3.10/site-packages/vllm/attention/ops/prefix_prefill.py":230:48)
#loc116 = loc("/data/home/scyb494/.conda/envs/verl/lib/python3.10/site-packages/vllm/attention/ops/prefix_prefill.py":230:38)
#loc117 = loc("/data/home/scyb494/.conda/envs/verl/lib/python3.10/site-packages/vllm/attention/ops/prefix_prefill.py":230:53)
#loc118 = loc("/data/home/scyb494/.conda/envs/verl/lib/python3.10/site-packages/vllm/attention/ops/prefix_prefill.py":236:34)
#loc119 = loc("/data/home/scyb494/.conda/envs/verl/lib/python3.10/site-packages/vllm/attention/ops/prefix_prefill.py":237:51)
#loc120 = loc("/data/home/scyb494/.conda/envs/verl/lib/python3.10/site-packages/vllm/attention/ops/prefix_prefill.py":237:21)
#loc121 = loc("/data/home/scyb494/.conda/envs/verl/lib/python3.10/site-packages/vllm/attention/ops/prefix_prefill.py":242:14)
#loc122 = loc("/data/home/scyb494/.conda/envs/verl/lib/python3.10/site-packages/vllm/attention/ops/prefix_prefill.py":244:42)
#loc123 = loc("/data/home/scyb494/.conda/envs/verl/lib/python3.10/site-packages/vllm/attention/ops/prefix_prefill.py":262:51)
#loc124 = loc("/data/home/scyb494/.conda/envs/verl/lib/python3.10/site-packages/vllm/attention/ops/prefix_prefill.py":262:21)
#loc125 = loc("/data/home/scyb494/.conda/envs/verl/lib/python3.10/site-packages/vllm/attention/ops/prefix_prefill.py":231:24)
#loc126 = loc("/data/home/scyb494/.conda/envs/verl/lib/python3.10/site-packages/vllm/attention/ops/prefix_prefill.py":237:32)
#loc127 = loc("/data/home/scyb494/.conda/envs/verl/lib/python3.10/site-packages/vllm/attention/ops/prefix_prefill.py":235:52)
#loc128 = loc("/data/home/scyb494/.conda/envs/verl/lib/python3.10/site-packages/vllm/attention/ops/prefix_prefill.py":235:63)
#loc129 = loc("/data/home/scyb494/.conda/envs/verl/lib/python3.10/site-packages/vllm/attention/ops/prefix_prefill.py":235:20)
#loc130 = loc("/data/home/scyb494/.conda/envs/verl/lib/python3.10/site-packages/vllm/attention/ops/prefix_prefill.py":234:20)
#loc131 = loc("/data/home/scyb494/.conda/envs/verl/lib/python3.10/site-packages/vllm/attention/ops/prefix_prefill.py":241:23)
#loc132 = loc("/data/home/scyb494/.conda/envs/verl/lib/python3.10/site-packages/vllm/attention/ops/prefix_prefill.py":245:22)
#loc134 = loc("/data/home/scyb494/.conda/envs/verl/lib/python3.10/site-packages/vllm/attention/ops/prefix_prefill.py":252:31)
#loc135 = loc("/data/home/scyb494/.conda/envs/verl/lib/python3.10/site-packages/vllm/attention/ops/prefix_prefill.py":253:29)
#loc136 = loc("/data/home/scyb494/.conda/envs/verl/lib/python3.10/site-packages/vllm/attention/ops/prefix_prefill.py":253:24)
#loc137 = loc("/data/home/scyb494/.conda/envs/verl/lib/python3.10/site-packages/vllm/attention/ops/prefix_prefill.py":253:19)
#loc139 = loc("/data/home/scyb494/.conda/envs/verl/lib/python3.10/site-packages/vllm/attention/ops/prefix_prefill.py":255:29)
#loc140 = loc("/data/home/scyb494/.conda/envs/verl/lib/python3.10/site-packages/vllm/attention/ops/prefix_prefill.py":255:23)
#loc141 = loc("/data/home/scyb494/.conda/envs/verl/lib/python3.10/site-packages/vllm/attention/ops/prefix_prefill.py":256:26)
#loc142 = loc("/data/home/scyb494/.conda/envs/verl/lib/python3.10/site-packages/vllm/attention/ops/prefix_prefill.py":256:20)
#loc143 = loc("/data/home/scyb494/.conda/envs/verl/lib/python3.10/site-packages/vllm/attention/ops/prefix_prefill.py":262:32)
#loc144 = loc("/data/home/scyb494/.conda/envs/verl/lib/python3.10/site-packages/vllm/attention/ops/prefix_prefill.py":260:63)
#loc145 = loc("/data/home/scyb494/.conda/envs/verl/lib/python3.10/site-packages/vllm/attention/ops/prefix_prefill.py":260:20)
#loc146 = loc("/data/home/scyb494/.conda/envs/verl/lib/python3.10/site-packages/vllm/attention/ops/prefix_prefill.py":259:20)
#loc147 = loc("/data/home/scyb494/.conda/envs/verl/lib/python3.10/site-packages/vllm/attention/ops/prefix_prefill.py":264:17)
#loc148 = loc("/data/home/scyb494/.conda/envs/verl/lib/python3.10/site-packages/vllm/attention/ops/prefix_prefill.py":266:24)
#loc149 = loc("/data/home/scyb494/.conda/envs/verl/lib/python3.10/site-packages/vllm/attention/ops/prefix_prefill.py":268:20)
#loc150 = loc("/data/home/scyb494/.conda/envs/verl/lib/python3.10/site-packages/vllm/attention/ops/prefix_prefill.py":268:28)
#loc151 = loc("/data/home/scyb494/.conda/envs/verl/lib/python3.10/site-packages/vllm/attention/ops/prefix_prefill.py":269:8)
#loc152 = loc("/data/home/scyb494/.conda/envs/verl/lib/python3.10/site-packages/vllm/attention/ops/prefix_prefill.py":271:20)
#loc153 = loc("/data/home/scyb494/.conda/envs/verl/lib/python3.10/site-packages/vllm/attention/ops/prefix_prefill.py":271:16)
#loc154 = loc("/data/home/scyb494/.conda/envs/verl/lib/python3.10/site-packages/vllm/attention/ops/prefix_prefill.py":274:64)
#loc155 = loc("/data/home/scyb494/.conda/envs/verl/lib/python3.10/site-packages/vllm/attention/ops/prefix_prefill.py":275:24)
#loc156 = loc("/data/home/scyb494/.conda/envs/verl/lib/python3.10/site-packages/vllm/attention/ops/prefix_prefill.py":275:13)
#loc157 = loc("/data/home/scyb494/.conda/envs/verl/lib/python3.10/site-packages/vllm/attention/ops/prefix_prefill.py":275:36)
#loc158 = loc("/data/home/scyb494/.conda/envs/verl/lib/python3.10/site-packages/vllm/attention/ops/prefix_prefill.py":276:21)
#loc159 = loc("/data/home/scyb494/.conda/envs/verl/lib/python3.10/site-packages/vllm/attention/ops/prefix_prefill.py":278:13)
#loc160 = loc("/data/home/scyb494/.conda/envs/verl/lib/python3.10/site-packages/vllm/attention/ops/prefix_prefill.py":280:4)
#loc161 = loc(callsite(#loc75 at #loc76))
#loc163 = loc(callsite(#loc77 at #loc75))
#loc164 = loc(callsite(#loc82 at #loc83))
#loc166 = loc(callsite(#loc84 at #loc82))
#loc167 = loc(callsite(#loc75 at #loc133))
#loc169 = loc(callsite(#loc82 at #loc138))
#loc171 = loc(callsite(#loc163 at #loc76))
#loc172 = loc(callsite(#loc166 at #loc83))
#loc173 = loc(callsite(#loc163 at #loc133))
#loc174 = loc(callsite(#loc166 at #loc138))
