#loc = loc("/data/home/scyb494/.conda/envs/verl/lib/python3.10/site-packages/vllm/attention/ops/prefix_prefill.py":22:0)
#loc1 = loc(unknown)
module {
  tt.func public @_fwd_kernel(%arg0: !tt.ptr<bf16> {tt.divisibility = 16 : i32} loc("/data/home/scyb494/.conda/envs/verl/lib/python3.10/site-packages/vllm/attention/ops/prefix_prefill.py":22:0), %arg1: !tt.ptr<bf16> {tt.divisibility = 16 : i32} loc("/data/home/scyb494/.conda/envs/verl/lib/python3.10/site-packages/vllm/attention/ops/prefix_prefill.py":22:0), %arg2: !tt.ptr<bf16> {tt.divisibility = 16 : i32} loc("/data/home/scyb494/.conda/envs/verl/lib/python3.10/site-packages/vllm/attention/ops/prefix_prefill.py":22:0), %arg3: !tt.ptr<bf16> {tt.divisibility = 16 : i32} loc("/data/home/scyb494/.conda/envs/verl/lib/python3.10/site-packages/vllm/attention/ops/prefix_prefill.py":22:0), %arg4: !tt.ptr<bf16> {tt.divisibility = 16 : i32} loc("/data/home/scyb494/.conda/envs/verl/lib/python3.10/site-packages/vllm/attention/ops/prefix_prefill.py":22:0), %arg5: !tt.ptr<i32> {tt.divisibility = 16 : i32} loc("/data/home/scyb494/.conda/envs/verl/lib/python3.10/site-packages/vllm/attention/ops/prefix_prefill.py":22:0), %arg6: f32 loc("/data/home/scyb494/.conda/envs/verl/lib/python3.10/site-packages/vllm/attention/ops/prefix_prefill.py":22:0), %arg7: !tt.ptr<f32> {tt.divisibility = 16 : i32} loc("/data/home/scyb494/.conda/envs/verl/lib/python3.10/site-packages/vllm/attention/ops/prefix_prefill.py":22:0), %arg8: !tt.ptr<f32> {tt.divisibility = 16 : i32} loc("/data/home/scyb494/.conda/envs/verl/lib/python3.10/site-packages/vllm/attention/ops/prefix_prefill.py":22:0), %arg9: !tt.ptr<i32> {tt.divisibility = 16 : i32} loc("/data/home/scyb494/.conda/envs/verl/lib/python3.10/site-packages/vllm/attention/ops/prefix_prefill.py":22:0), %arg10: !tt.ptr<i32> {tt.divisibility = 16 : i32} loc("/data/home/scyb494/.conda/envs/verl/lib/python3.10/site-packages/vllm/attention/ops/prefix_prefill.py":22:0), %arg11: !tt.ptr<i32> {tt.divisibility = 16 : i32} loc("/data/home/scyb494/.conda/envs/verl/lib/python3.10/site-packages/vllm/attention/ops/prefix_prefill.py":22:0), %arg12: i32 {tt.divisibility = 16 : i32} loc("/data/home/scyb494/.conda/envs/verl/lib/python3.10/site-packages/vllm/attention/ops/prefix_prefill.py":22:0), %arg13: i32 loc("/data/home/scyb494/.conda/envs/verl/lib/python3.10/site-packages/vllm/attention/ops/prefix_prefill.py":22:0), %arg14: !tt.ptr<bf16> {tt.divisibility = 16 : i32} loc("/data/home/scyb494/.conda/envs/verl/lib/python3.10/site-packages/vllm/attention/ops/prefix_prefill.py":22:0), %arg15: i32 {tt.divisibility = 16 : i32} loc("/data/home/scyb494/.conda/envs/verl/lib/python3.10/site-packages/vllm/attention/ops/prefix_prefill.py":22:0), %arg16: i32 {tt.divisibility = 16 : i32} loc("/data/home/scyb494/.conda/envs/verl/lib/python3.10/site-packages/vllm/attention/ops/prefix_prefill.py":22:0), %arg17: i32 {tt.divisibility = 16 : i32} loc("/data/home/scyb494/.conda/envs/verl/lib/python3.10/site-packages/vllm/attention/ops/prefix_prefill.py":22:0), %arg18: i32 {tt.divisibility = 16 : i32} loc("/data/home/scyb494/.conda/envs/verl/lib/python3.10/site-packages/vllm/attention/ops/prefix_prefill.py":22:0), %arg19: i32 {tt.divisibility = 16 : i32} loc("/data/home/scyb494/.conda/envs/verl/lib/python3.10/site-packages/vllm/attention/ops/prefix_prefill.py":22:0), %arg20: i32 {tt.divisibility = 16 : i32} loc("/data/home/scyb494/.conda/envs/verl/lib/python3.10/site-packages/vllm/attention/ops/prefix_prefill.py":22:0), %arg21: i32 {tt.divisibility = 16 : i32} loc("/data/home/scyb494/.conda/envs/verl/lib/python3.10/site-packages/vllm/attention/ops/prefix_prefill.py":22:0), %arg22: i32 {tt.divisibility = 16 : i32} loc("/data/home/scyb494/.conda/envs/verl/lib/python3.10/site-packages/vllm/attention/ops/prefix_prefill.py":22:0), %arg23: i32 {tt.divisibility = 16 : i32} loc("/data/home/scyb494/.conda/envs/verl/lib/python3.10/site-packages/vllm/attention/ops/prefix_prefill.py":22:0), %arg24: i32 {tt.divisibility = 16 : i32} loc("/data/home/scyb494/.conda/envs/verl/lib/python3.10/site-packages/vllm/attention/ops/prefix_prefill.py":22:0), %arg25: i32 {tt.divisibility = 16 : i32} loc("/data/home/scyb494/.conda/envs/verl/lib/python3.10/site-packages/vllm/attention/ops/prefix_prefill.py":22:0), %arg26: i32 loc("/data/home/scyb494/.conda/envs/verl/lib/python3.10/site-packages/vllm/attention/ops/prefix_prefill.py":22:0), %arg27: i32 {tt.divisibility = 16 : i32} loc("/data/home/scyb494/.conda/envs/verl/lib/python3.10/site-packages/vllm/attention/ops/prefix_prefill.py":22:0), %arg28: i32 {tt.divisibility = 16 : i32} loc("/data/home/scyb494/.conda/envs/verl/lib/python3.10/site-packages/vllm/attention/ops/prefix_prefill.py":22:0), %arg29: i32 {tt.divisibility = 16 : i32} loc("/data/home/scyb494/.conda/envs/verl/lib/python3.10/site-packages/vllm/attention/ops/prefix_prefill.py":22:0), %arg30: i32 loc("/data/home/scyb494/.conda/envs/verl/lib/python3.10/site-packages/vllm/attention/ops/prefix_prefill.py":22:0)) attributes {noinline = false} {
    %cst = arith.constant dense<0xFF800000> : tensor<128xf32> loc(#loc1)
    %cst_0 = arith.constant dense<0.000000e+00> : tensor<128x128xf32> loc(#loc1)
    %cst_1 = arith.constant dense<0.000000e+00> : tensor<128xf32> loc(#loc1)
    %c0_i32 = arith.constant 0 : i32 loc(#loc1)
    %cst_2 = arith.constant dense<0.000000e+00> : tensor<128x128xbf16> loc(#loc1)
    %cst_3 = arith.constant dense<0xFF800000> : tensor<128x128xf32> loc(#loc1)
    %cst_4 = arith.constant dense<0> : tensor<128xi32> loc(#loc1)
    %cst_5 = arith.constant dense<1> : tensor<128xi32> loc(#loc1)
    %cst_6 = arith.constant dense<128> : tensor<128xi32> loc(#loc1)
    %c1_i32 = arith.constant 1 : i32 loc(#loc1)
    %c128_i32 = arith.constant 128 : i32 loc(#loc1)
    %0 = tt.get_program_id x : i32 loc(#loc2)
    %1 = tt.get_program_id y : i32 loc(#loc3)
    %2 = tt.get_program_id z : i32 loc(#loc4)
    %3 = arith.divsi %1, %arg30 : i32 loc(#loc5)
    %4 = tt.addptr %arg11, %0 : !tt.ptr<i32>, i32 loc(#loc6)
    %5 = tt.load %4 : !tt.ptr<i32> loc(#loc7)
    %6 = tt.addptr %arg10, %0 : !tt.ptr<i32>, i32 loc(#loc8)
    %7 = tt.load %6 : !tt.ptr<i32> loc(#loc9)
    %8 = tt.addptr %arg9, %0 : !tt.ptr<i32>, i32 loc(#loc10)
    %9 = tt.load %8 : !tt.ptr<i32> loc(#loc11)
    %10 = arith.subi %7, %5 : i32 loc(#loc12)
    %11 = arith.muli %2, %c128_i32 : i32 loc(#loc13)
    %12 = tt.make_range {end = 128 : i32, start = 0 : i32} : tensor<128xi32> loc(#loc14)
    %13 = tt.splat %11 : i32 -> tensor<128xi32> loc(#loc15)
    %14 = arith.addi %13, %12 : tensor<128xi32> loc(#loc15)
    %15 = tt.expand_dims %14 {axis = 1 : i32} : tensor<128xi32> -> tensor<128x1xi32> loc(#loc16)
    %16 = tt.splat %9 : i32 -> tensor<128x1xi32> loc(#loc17)
    %17 = arith.addi %16, %15 : tensor<128x1xi32> loc(#loc17)
    %18 = tt.splat %arg15 : i32 -> tensor<128x1xi32> loc(#loc18)
    %19 = arith.muli %17, %18 : tensor<128x1xi32> loc(#loc18)
    %20 = arith.muli %1, %arg16 : i32 loc(#loc19)
    %21 = tt.splat %20 : i32 -> tensor<128x1xi32> loc(#loc20)
    %22 = arith.addi %19, %21 : tensor<128x1xi32> loc(#loc20)
    %23 = tt.expand_dims %12 {axis = 0 : i32} : tensor<128xi32> -> tensor<1x128xi32> loc(#loc21)
    %24 = tt.broadcast %22 : tensor<128x1xi32> -> tensor<128x128xi32> loc(#loc22)
    %25 = tt.broadcast %23 : tensor<1x128xi32> -> tensor<128x128xi32> loc(#loc22)
    %26 = arith.addi %24, %25 : tensor<128x128xi32> loc(#loc22)
    %27 = arith.cmpi slt, %12, %cst_6 : tensor<128xi32> loc(#loc23)
    %28 = arith.select %27, %cst_5, %cst_4 : tensor<128xi1>, tensor<128xi32> loc(#loc24)
    %29 = arith.cmpi ne, %28, %cst_4 : tensor<128xi32> loc(#loc25)
    %30 = tt.expand_dims %29 {axis = 0 : i32} : tensor<128xi1> -> tensor<1x128xi1> loc(#loc26)
    %31 = tt.splat %10 : i32 -> tensor<128x1xi32> loc(#loc27)
    %32 = arith.cmpi slt, %15, %31 : tensor<128x1xi32> loc(#loc27)
    %33 = tt.broadcast %30 : tensor<1x128xi1> -> tensor<128x128xi1> loc(#loc28)
    %34 = tt.broadcast %32 : tensor<128x1xi1> -> tensor<128x128xi1> loc(#loc28)
    %35 = arith.andi %33, %34 : tensor<128x128xi1> loc(#loc28)
    %36 = tt.splat %arg0 : !tt.ptr<bf16> -> tensor<128x128x!tt.ptr<bf16>> loc(#loc29)
    %37 = tt.addptr %36, %26 : tensor<128x128x!tt.ptr<bf16>>, tensor<128x128xi32> loc(#loc29)
    %38 = tt.load %37, %35, %cst_2 : tensor<128x128x!tt.ptr<bf16>> loc(#loc30)
    %39 = tt.splat %5 : i32 -> tensor<128xi32> loc(#loc31)
    %40 = tt.addptr %arg5, %0 : !tt.ptr<i32>, i32 loc(#loc32)
    %41 = tt.splat %arg12 : i32 -> tensor<128xi32> loc(#loc33)
    %42 = tt.splat %40 : !tt.ptr<i32> -> tensor<128x!tt.ptr<i32>> loc(#loc34)
    %43 = tt.splat %arg23 : i32 -> tensor<1x128xi32> loc(#loc35)
    %44 = arith.muli %3, %arg24 : i32 loc(#loc36)
    %45 = tt.splat %44 : i32 -> tensor<1x128xi32> loc(#loc37)
    %46 = tt.expand_dims %12 {axis = 1 : i32} : tensor<128xi32> -> tensor<128x1xi32> loc(#loc38)
    %47 = tt.splat %arg13 : i32 -> tensor<128x1xi32> loc(#loc39)
    %48 = tt.splat %arg25 : i32 -> tensor<128x1xi32> loc(#loc40)
    %49 = tt.splat %arg12 : i32 -> tensor<1x128xi32> loc(#loc41)
    %50 = tt.splat %arg26 : i32 -> tensor<1x128xi32> loc(#loc42)
    %51 = arith.remsi %46, %47 : tensor<128x1xi32> loc(#loc43)
    %52 = tt.broadcast %51 : tensor<128x1xi32> -> tensor<128x128xi32> loc(#loc44)
    %53 = tt.splat %arg27 : i32 -> tensor<128x1xi32> loc(#loc45)
    %54 = arith.muli %3, %arg28 : i32 loc(#loc46)
    %55 = tt.splat %54 : i32 -> tensor<128x1xi32> loc(#loc47)
    %56 = tt.splat %arg29 : i32 -> tensor<1x128xi32> loc(#loc48)
    %57 = arith.muli %23, %56 : tensor<1x128xi32> loc(#loc48)
    %58 = tt.broadcast %57 : tensor<1x128xi32> -> tensor<128x128xi32> loc(#loc49)
    %59 = tt.splat %arg12 : i32 -> tensor<128x1xi32> loc(#loc50)
    %60 = tt.expand_dims %29 {axis = 1 : i32} : tensor<128xi1> -> tensor<128x1xi1> loc(#loc51)
    %61 = tt.splat %5 : i32 -> tensor<1x128xi32> loc(#loc52)
    %62 = tt.broadcast %60 : tensor<128x1xi1> -> tensor<128x128xi1> loc(#loc53)
    %63 = tt.splat %arg3 : !tt.ptr<bf16> -> tensor<128x128x!tt.ptr<bf16>> loc(#loc54)
    %64 = tt.splat %arg6 : f32 -> tensor<128x128xf32> loc(#loc55)
    %65 = tt.splat %5 : i32 -> tensor<128x1xi32> loc(#loc56)
    %66 = tt.splat %arg4 : !tt.ptr<bf16> -> tensor<128x128x!tt.ptr<bf16>> loc(#loc57)
    %67:3 = scf.for %arg31 = %c0_i32 to %5 step %c128_i32 iter_args(%arg32 = %cst_0, %arg33 = %cst_1, %arg34 = %cst) -> (tensor<128x128xf32>, tensor<128xf32>, tensor<128xf32>)  : i32 {
      %109 = tt.splat %arg31 : i32 -> tensor<128xi32> loc(#loc59)
      %110 = arith.addi %109, %12 : tensor<128xi32> loc(#loc59)
      %111 = arith.cmpi slt, %110, %39 : tensor<128xi32> loc(#loc31)
      %112 = arith.divsi %110, %41 : tensor<128xi32> loc(#loc33)
      %113 = tt.addptr %42, %112 : tensor<128x!tt.ptr<i32>>, tensor<128xi32> loc(#loc34)
      %114 = tt.load %113, %111, %cst_4 : tensor<128x!tt.ptr<i32>> loc(#loc60)
      %115 = tt.expand_dims %114 {axis = 0 : i32} : tensor<128xi32> -> tensor<1x128xi32> loc(#loc61)
      %116 = arith.muli %115, %43 : tensor<1x128xi32> loc(#loc35)
      %117 = arith.addi %116, %45 : tensor<1x128xi32> loc(#loc37)
      %118 = arith.divsi %46, %47 : tensor<128x1xi32> loc(#loc39)
      %119 = arith.muli %118, %48 : tensor<128x1xi32> loc(#loc40)
      %120 = tt.broadcast %117 : tensor<1x128xi32> -> tensor<128x128xi32> loc(#loc62)
      %121 = tt.broadcast %119 : tensor<128x1xi32> -> tensor<128x128xi32> loc(#loc62)
      %122 = arith.addi %120, %121 : tensor<128x128xi32> loc(#loc62)
      %123 = tt.splat %arg31 : i32 -> tensor<1x128xi32> loc(#loc63)
      %124 = arith.addi %123, %23 : tensor<1x128xi32> loc(#loc63)
      %125 = arith.remsi %124, %49 : tensor<1x128xi32> loc(#loc41)
      %126 = arith.muli %125, %50 : tensor<1x128xi32> loc(#loc42)
      %127 = tt.broadcast %126 : tensor<1x128xi32> -> tensor<128x128xi32> loc(#loc64)
      %128 = arith.addi %122, %127 : tensor<128x128xi32> loc(#loc64)
      %129 = arith.addi %128, %52 : tensor<128x128xi32> loc(#loc44)
      %130 = tt.expand_dims %114 {axis = 1 : i32} : tensor<128xi32> -> tensor<128x1xi32> loc(#loc65)
      %131 = arith.muli %130, %53 : tensor<128x1xi32> loc(#loc45)
      %132 = arith.addi %131, %55 : tensor<128x1xi32> loc(#loc47)
      %133 = tt.broadcast %132 : tensor<128x1xi32> -> tensor<128x128xi32> loc(#loc49)
      %134 = arith.addi %133, %58 : tensor<128x128xi32> loc(#loc49)
      %135 = tt.splat %arg31 : i32 -> tensor<128x1xi32> loc(#loc66)
      %136 = arith.addi %135, %46 : tensor<128x1xi32> loc(#loc66)
      %137 = arith.remsi %136, %59 : tensor<128x1xi32> loc(#loc50)
      %138 = tt.broadcast %137 : tensor<128x1xi32> -> tensor<128x128xi32> loc(#loc67)
      %139 = arith.addi %134, %138 : tensor<128x128xi32> loc(#loc67)
      %140 = arith.cmpi slt, %124, %61 : tensor<1x128xi32> loc(#loc52)
      %141 = tt.broadcast %140 : tensor<1x128xi1> -> tensor<128x128xi1> loc(#loc53)
      %142 = arith.andi %62, %141 : tensor<128x128xi1> loc(#loc53)
      %143 = tt.addptr %63, %129 : tensor<128x128x!tt.ptr<bf16>>, tensor<128x128xi32> loc(#loc54)
      %144 = tt.load %143, %142, %cst_2 : tensor<128x128x!tt.ptr<bf16>> loc(#loc68)
      %145 = tt.dot %38, %144, %cst_0, inputPrecision = tf32 : tensor<128x128xbf16> * tensor<128x128xbf16> -> tensor<128x128xf32> loc(#loc69)
      %146 = arith.select %141, %145, %cst_3 : tensor<128x128xi1>, tensor<128x128xf32> loc(#loc70)
      %147 = arith.mulf %146, %64 : tensor<128x128xf32> loc(#loc55)
      %148 = "tt.reduce"(%147) <{axis = 1 : i32}> ({
      ^bb0(%arg35: f32 loc(unknown), %arg36: f32 loc(unknown)):
        %178 = arith.maxnumf %arg35, %arg36 : f32 loc(#loc171)
        tt.reduce.return %178 : f32 loc(#loc165)
      }) : (tensor<128x128xf32>) -> tensor<128xf32> loc(#loc165)
      %149 = tt.expand_dims %148 {axis = 1 : i32} : tensor<128xf32> -> tensor<128x1xf32> loc(#loc74)
      %150 = tt.broadcast %149 : tensor<128x1xf32> -> tensor<128x128xf32> loc(#loc75)
      %151 = arith.subf %147, %150 : tensor<128x128xf32> loc(#loc75)
      %152 = math.exp %151 : tensor<128x128xf32> loc(#loc76)
      %153 = "tt.reduce"(%152) <{axis = 1 : i32}> ({
      ^bb0(%arg35: f32 loc(unknown), %arg36: f32 loc(unknown)):
        %178 = arith.addf %arg35, %arg36 : f32 loc(#loc172)
        tt.reduce.return %178 : f32 loc(#loc167)
      }) : (tensor<128x128xf32>) -> tensor<128xf32> loc(#loc167)
      %154 = arith.maxnumf %arg34, %148 : tensor<128xf32> loc(#loc80)
      %155 = arith.subf %arg34, %154 : tensor<128xf32> loc(#loc81)
      %156 = math.exp %155 : tensor<128xf32> loc(#loc82)
      %157 = arith.subf %148, %154 : tensor<128xf32> loc(#loc83)
      %158 = math.exp %157 : tensor<128xf32> loc(#loc84)
      %159 = arith.mulf %156, %arg33 : tensor<128xf32> loc(#loc85)
      %160 = arith.mulf %158, %153 : tensor<128xf32> loc(#loc86)
      %161 = arith.addf %159, %160 : tensor<128xf32> loc(#loc87)
      %162 = arith.divf %158, %161 : tensor<128xf32> loc(#loc88)
      %163 = tt.expand_dims %162 {axis = 1 : i32} : tensor<128xf32> -> tensor<128x1xf32> loc(#loc89)
      %164 = tt.broadcast %163 : tensor<128x1xf32> -> tensor<128x128xf32> loc(#loc90)
      %165 = arith.mulf %152, %164 : tensor<128x128xf32> loc(#loc90)
      %166 = arith.divf %arg33, %161 : tensor<128xf32> loc(#loc91)
      %167 = arith.mulf %166, %156 : tensor<128xf32> loc(#loc92)
      %168 = tt.expand_dims %167 {axis = 1 : i32} : tensor<128xf32> -> tensor<128x1xf32> loc(#loc93)
      %169 = tt.broadcast %168 : tensor<128x1xf32> -> tensor<128x128xf32> loc(#loc94)
      %170 = arith.mulf %arg32, %169 : tensor<128x128xf32> loc(#loc94)
      %171 = arith.cmpi slt, %136, %65 : tensor<128x1xi32> loc(#loc56)
      %172 = tt.broadcast %171 : tensor<128x1xi1> -> tensor<128x128xi1> loc(#loc95)
      %173 = arith.andi %33, %172 : tensor<128x128xi1> loc(#loc95)
      %174 = tt.addptr %66, %139 : tensor<128x128x!tt.ptr<bf16>>, tensor<128x128xi32> loc(#loc57)
      %175 = tt.load %174, %173, %cst_2 : tensor<128x128x!tt.ptr<bf16>> loc(#loc96)
      %176 = arith.truncf %165 : tensor<128x128xf32> to tensor<128x128xbf16> loc(#loc97)
      %177 = tt.dot %176, %175, %170, inputPrecision = tf32 : tensor<128x128xbf16> * tensor<128x128xbf16> -> tensor<128x128xf32> loc(#loc98)
      scf.yield %177, %161, %154 : tensor<128x128xf32>, tensor<128xf32>, tensor<128xf32> loc(#loc99)
    } {tt.divisibility_arg1 = dense<128> : tensor<1xi32>} loc(#loc58)
    %68 = tt.splat %arg17 : i32 -> tensor<1x128xi32> loc(#loc100)
    %69 = arith.muli %23, %68 : tensor<1x128xi32> loc(#loc100)
    %70 = arith.muli %3, %arg18 : i32 loc(#loc101)
    %71 = tt.splat %70 : i32 -> tensor<1x128xi32> loc(#loc102)
    %72 = arith.addi %69, %71 : tensor<1x128xi32> loc(#loc102)
    %73 = tt.expand_dims %12 {axis = 1 : i32} : tensor<128xi32> -> tensor<128x1xi32> loc(#loc103)
    %74 = tt.broadcast %72 : tensor<1x128xi32> -> tensor<128x128xi32> loc(#loc104)
    %75 = tt.broadcast %73 : tensor<128x1xi32> -> tensor<128x128xi32> loc(#loc104)
    %76 = arith.addi %74, %75 : tensor<128x128xi32> loc(#loc104)
    %77 = tt.splat %arg19 : i32 -> tensor<128x1xi32> loc(#loc105)
    %78 = arith.muli %73, %77 : tensor<128x1xi32> loc(#loc105)
    %79 = arith.muli %3, %arg20 : i32 loc(#loc106)
    %80 = tt.splat %79 : i32 -> tensor<128x1xi32> loc(#loc107)
    %81 = arith.addi %78, %80 : tensor<128x1xi32> loc(#loc107)
    %82 = tt.broadcast %81 : tensor<128x1xi32> -> tensor<128x128xi32> loc(#loc108)
    %83 = arith.addi %82, %25 : tensor<128x128xi32> loc(#loc108)
    %84 = tt.splat %arg1 : !tt.ptr<bf16> -> tensor<128x128x!tt.ptr<bf16>> loc(#loc109)
    %85 = tt.addptr %84, %76 : tensor<128x128x!tt.ptr<bf16>>, tensor<128x128xi32> loc(#loc109)
    %86 = tt.splat %arg2 : !tt.ptr<bf16> -> tensor<128x128x!tt.ptr<bf16>> loc(#loc110)
    %87 = tt.addptr %86, %83 : tensor<128x128x!tt.ptr<bf16>>, tensor<128x128xi32> loc(#loc110)
    %88 = arith.cmpi slt, %11, %10 : i32 loc(#loc111)
    %89 = arith.extui %88 : i1 to i32 loc(#loc112)
    %90 = arith.addi %2, %c1_i32 : i32 loc(#loc113)
    %91 = arith.muli %89, %90 : i32 loc(#loc114)
    %92 = arith.muli %91, %c128_i32 : i32 loc(#loc115)
    %93 = tt.expand_dims %29 {axis = 1 : i32} : tensor<128xi1> -> tensor<128x1xi1> loc(#loc116)
    %94 = tt.splat %10 : i32 -> tensor<1x128xi32> loc(#loc117)
    %95 = tt.broadcast %93 : tensor<128x1xi1> -> tensor<128x128xi1> loc(#loc118)
    %96 = tt.splat %arg6 : f32 -> tensor<128x128xf32> loc(#loc119)
    %97 = tt.broadcast %15 : tensor<128x1xi32> -> tensor<128x128xi32> loc(#loc120)
    %98:3 = scf.for %arg31 = %c0_i32 to %92 step %c128_i32 iter_args(%arg32 = %67#0, %arg33 = %67#1, %arg34 = %67#2) -> (tensor<128x128xf32>, tensor<128xf32>, tensor<128xf32>)  : i32 {
      %109 = tt.splat %arg31 : i32 -> tensor<1x128xi32> loc(#loc122)
      %110 = arith.addi %109, %23 : tensor<1x128xi32> loc(#loc122)
      %111 = arith.cmpi slt, %110, %94 : tensor<1x128xi32> loc(#loc117)
      %112 = tt.broadcast %111 : tensor<1x128xi1> -> tensor<128x128xi1> loc(#loc118)
      %113 = arith.andi %95, %112 : tensor<128x128xi1> loc(#loc118)
      %114 = arith.addi %9, %arg31 : i32 loc(#loc123)
      %115 = arith.muli %114, %arg17 : i32 loc(#loc124)
      %116 = tt.splat %115 : i32 -> tensor<128x128xi32> loc(#loc125)
      %117 = tt.addptr %85, %116 : tensor<128x128x!tt.ptr<bf16>>, tensor<128x128xi32> loc(#loc125)
      %118 = tt.load %117, %113, %cst_2 : tensor<128x128x!tt.ptr<bf16>> loc(#loc126)
      %119 = tt.dot %38, %118, %cst_0, inputPrecision = tf32 : tensor<128x128xbf16> * tensor<128x128xbf16> -> tensor<128x128xf32> loc(#loc127)
      %120 = arith.mulf %119, %96 : tensor<128x128xf32> loc(#loc119)
      %121 = tt.broadcast %110 : tensor<1x128xi32> -> tensor<128x128xi32> loc(#loc120)
      %122 = arith.cmpi sge, %97, %121 : tensor<128x128xi32> loc(#loc120)
      %123 = arith.select %122, %120, %cst_3 : tensor<128x128xi1>, tensor<128x128xf32> loc(#loc128)
      %124 = "tt.reduce"(%123) <{axis = 1 : i32}> ({
      ^bb0(%arg35: f32 loc(unknown), %arg36: f32 loc(unknown)):
        %158 = arith.maxnumf %arg35, %arg36 : f32 loc(#loc173)
        tt.reduce.return %158 : f32 loc(#loc169)
      }) : (tensor<128x128xf32>) -> tensor<128xf32> loc(#loc169)
      %125 = tt.expand_dims %124 {axis = 1 : i32} : tensor<128xf32> -> tensor<128x1xf32> loc(#loc130)
      %126 = tt.broadcast %125 : tensor<128x1xf32> -> tensor<128x128xf32> loc(#loc131)
      %127 = arith.subf %123, %126 : tensor<128x128xf32> loc(#loc131)
      %128 = math.exp %127 : tensor<128x128xf32> loc(#loc132)
      %129 = "tt.reduce"(%128) <{axis = 1 : i32}> ({
      ^bb0(%arg35: f32 loc(unknown), %arg36: f32 loc(unknown)):
        %158 = arith.addf %arg35, %arg36 : f32 loc(#loc174)
        tt.reduce.return %158 : f32 loc(#loc170)
      }) : (tensor<128x128xf32>) -> tensor<128xf32> loc(#loc170)
      %130 = arith.maxnumf %arg34, %124 : tensor<128xf32> loc(#loc134)
      %131 = arith.subf %arg34, %130 : tensor<128xf32> loc(#loc135)
      %132 = math.exp %131 : tensor<128xf32> loc(#loc136)
      %133 = arith.subf %124, %130 : tensor<128xf32> loc(#loc137)
      %134 = math.exp %133 : tensor<128xf32> loc(#loc138)
      %135 = arith.mulf %132, %arg33 : tensor<128xf32> loc(#loc139)
      %136 = arith.mulf %134, %129 : tensor<128xf32> loc(#loc140)
      %137 = arith.addf %135, %136 : tensor<128xf32> loc(#loc141)
      %138 = arith.divf %134, %137 : tensor<128xf32> loc(#loc142)
      %139 = tt.expand_dims %138 {axis = 1 : i32} : tensor<128xf32> -> tensor<128x1xf32> loc(#loc143)
      %140 = tt.broadcast %139 : tensor<128x1xf32> -> tensor<128x128xf32> loc(#loc144)
      %141 = arith.mulf %128, %140 : tensor<128x128xf32> loc(#loc144)
      %142 = arith.divf %arg33, %137 : tensor<128xf32> loc(#loc145)
      %143 = arith.mulf %142, %132 : tensor<128xf32> loc(#loc146)
      %144 = tt.expand_dims %143 {axis = 1 : i32} : tensor<128xf32> -> tensor<128x1xf32> loc(#loc147)
      %145 = tt.broadcast %144 : tensor<128x1xf32> -> tensor<128x128xf32> loc(#loc148)
      %146 = arith.mulf %arg32, %145 : tensor<128x128xf32> loc(#loc148)
      %147 = tt.splat %arg31 : i32 -> tensor<128x1xi32> loc(#loc149)
      %148 = arith.addi %147, %73 : tensor<128x1xi32> loc(#loc149)
      %149 = arith.cmpi slt, %148, %31 : tensor<128x1xi32> loc(#loc150)
      %150 = tt.broadcast %149 : tensor<128x1xi1> -> tensor<128x128xi1> loc(#loc151)
      %151 = arith.andi %33, %150 : tensor<128x128xi1> loc(#loc151)
      %152 = arith.muli %114, %arg19 : i32 loc(#loc152)
      %153 = tt.splat %152 : i32 -> tensor<128x128xi32> loc(#loc153)
      %154 = tt.addptr %87, %153 : tensor<128x128x!tt.ptr<bf16>>, tensor<128x128xi32> loc(#loc153)
      %155 = tt.load %154, %151, %cst_2 : tensor<128x128x!tt.ptr<bf16>> loc(#loc154)
      %156 = arith.truncf %141 : tensor<128x128xf32> to tensor<128x128xbf16> loc(#loc155)
      %157 = tt.dot %156, %155, %146, inputPrecision = tf32 : tensor<128x128xbf16> * tensor<128x128xbf16> -> tensor<128x128xf32> loc(#loc156)
      scf.yield %157, %137, %130 : tensor<128x128xf32>, tensor<128xf32>, tensor<128xf32> loc(#loc157)
    } {tt.divisibility_arg1 = dense<128> : tensor<1xi32>} loc(#loc121)
    %99 = tt.splat %arg21 : i32 -> tensor<128x1xi32> loc(#loc158)
    %100 = arith.muli %17, %99 : tensor<128x1xi32> loc(#loc158)
    %101 = arith.muli %1, %arg22 : i32 loc(#loc159)
    %102 = tt.splat %101 : i32 -> tensor<128x1xi32> loc(#loc160)
    %103 = arith.addi %100, %102 : tensor<128x1xi32> loc(#loc160)
    %104 = tt.broadcast %103 : tensor<128x1xi32> -> tensor<128x128xi32> loc(#loc161)
    %105 = arith.addi %104, %25 : tensor<128x128xi32> loc(#loc161)
    %106 = tt.splat %arg14 : !tt.ptr<bf16> -> tensor<128x128x!tt.ptr<bf16>> loc(#loc162)
    %107 = tt.addptr %106, %105 : tensor<128x128x!tt.ptr<bf16>>, tensor<128x128xi32> loc(#loc162)
    %108 = arith.truncf %98#0 : tensor<128x128xf32> to tensor<128x128xbf16> loc(#loc163)
    tt.store %107, %108, %35 : tensor<128x128x!tt.ptr<bf16>> loc(#loc163)
    tt.return loc(#loc164)
  } loc(#loc)
} loc(#loc)
#loc2 = loc("/data/home/scyb494/.conda/envs/verl/lib/python3.10/site-packages/vllm/attention/ops/prefix_prefill.py":69:30)
#loc3 = loc("/data/home/scyb494/.conda/envs/verl/lib/python3.10/site-packages/vllm/attention/ops/prefix_prefill.py":70:29)
#loc4 = loc("/data/home/scyb494/.conda/envs/verl/lib/python3.10/site-packages/vllm/attention/ops/prefix_prefill.py":71:28)
#loc5 = loc("/data/home/scyb494/.conda/envs/verl/lib/python3.10/site-packages/vllm/attention/ops/prefix_prefill.py":73:30)
#loc6 = loc("/data/home/scyb494/.conda/envs/verl/lib/python3.10/site-packages/vllm/attention/ops/prefix_prefill.py":75:43)
#loc7 = loc("/data/home/scyb494/.conda/envs/verl/lib/python3.10/site-packages/vllm/attention/ops/prefix_prefill.py":75:32)
#loc8 = loc("/data/home/scyb494/.conda/envs/verl/lib/python3.10/site-packages/vllm/attention/ops/prefix_prefill.py":76:43)
#loc9 = loc("/data/home/scyb494/.conda/envs/verl/lib/python3.10/site-packages/vllm/attention/ops/prefix_prefill.py":76:32)
#loc10 = loc("/data/home/scyb494/.conda/envs/verl/lib/python3.10/site-packages/vllm/attention/ops/prefix_prefill.py":77:57)
#loc11 = loc("/data/home/scyb494/.conda/envs/verl/lib/python3.10/site-packages/vllm/attention/ops/prefix_prefill.py":77:43)
#loc12 = loc("/data/home/scyb494/.conda/envs/verl/lib/python3.10/site-packages/vllm/attention/ops/prefix_prefill.py":78:46)
#loc13 = loc("/data/home/scyb494/.conda/envs/verl/lib/python3.10/site-packages/vllm/attention/ops/prefix_prefill.py":82:32)
#loc14 = loc("/data/home/scyb494/.conda/envs/verl/lib/python3.10/site-packages/vllm/attention/ops/prefix_prefill.py":86:26)
#loc15 = loc("/data/home/scyb494/.conda/envs/verl/lib/python3.10/site-packages/vllm/attention/ops/prefix_prefill.py":90:33)
#loc16 = loc("/data/home/scyb494/.conda/envs/verl/lib/python3.10/site-packages/vllm/attention/ops/prefix_prefill.py":93:47)
#loc17 = loc("/data/home/scyb494/.conda/envs/verl/lib/python3.10/site-packages/vllm/attention/ops/prefix_prefill.py":93:40)
#loc18 = loc("/data/home/scyb494/.conda/envs/verl/lib/python3.10/site-packages/vllm/attention/ops/prefix_prefill.py":93:59)
#loc19 = loc("/data/home/scyb494/.conda/envs/verl/lib/python3.10/site-packages/vllm/attention/ops/prefix_prefill.py":94:19)
#loc20 = loc("/data/home/scyb494/.conda/envs/verl/lib/python3.10/site-packages/vllm/attention/ops/prefix_prefill.py":94:8)
#loc21 = loc("/data/home/scyb494/.conda/envs/verl/lib/python3.10/site-packages/vllm/attention/ops/prefix_prefill.py":94:38)
#loc22 = loc("/data/home/scyb494/.conda/envs/verl/lib/python3.10/site-packages/vllm/attention/ops/prefix_prefill.py":94:31)
#loc23 = loc("/data/home/scyb494/.conda/envs/verl/lib/python3.10/site-packages/vllm/attention/ops/prefix_prefill.py":97:44)
#loc24 = loc("/data/home/scyb494/.conda/envs/verl/lib/python3.10/site-packages/vllm/attention/ops/prefix_prefill.py":98:8)
#loc25 = loc("/data/home/scyb494/.conda/envs/verl/lib/python3.10/site-packages/vllm/attention/ops/prefix_prefill.py":98:14)
#loc26 = loc("/data/home/scyb494/.conda/envs/verl/lib/python3.10/site-packages/vllm/attention/ops/prefix_prefill.py":101:30)
#loc27 = loc("/data/home/scyb494/.conda/envs/verl/lib/python3.10/site-packages/vllm/attention/ops/prefix_prefill.py":102:35)
#loc28 = loc("/data/home/scyb494/.conda/envs/verl/lib/python3.10/site-packages/vllm/attention/ops/prefix_prefill.py":102:17)
#loc29 = loc("/data/home/scyb494/.conda/envs/verl/lib/python3.10/site-packages/vllm/attention/ops/prefix_prefill.py":100:20)
#loc30 = loc("/data/home/scyb494/.conda/envs/verl/lib/python3.10/site-packages/vllm/attention/ops/prefix_prefill.py":100:16)
#loc31 = loc("/data/home/scyb494/.conda/envs/verl/lib/python3.10/site-packages/vllm/attention/ops/prefix_prefill.py":117:47)
#loc32 = loc("/data/home/scyb494/.conda/envs/verl/lib/python3.10/site-packages/vllm/attention/ops/prefix_prefill.py":115:29)
#loc33 = loc("/data/home/scyb494/.conda/envs/verl/lib/python3.10/site-packages/vllm/attention/ops/prefix_prefill.py":116:44)
#loc34 = loc("/data/home/scyb494/.conda/envs/verl/lib/python3.10/site-packages/vllm/attention/ops/prefix_prefill.py":116:21)
#loc35 = loc("/data/home/scyb494/.conda/envs/verl/lib/python3.10/site-packages/vllm/attention/ops/prefix_prefill.py":120:31)
#loc36 = loc("/data/home/scyb494/.conda/envs/verl/lib/python3.10/site-packages/vllm/attention/ops/prefix_prefill.py":121:31)
#loc37 = loc("/data/home/scyb494/.conda/envs/verl/lib/python3.10/site-packages/vllm/attention/ops/prefix_prefill.py":121:17)
#loc38 = loc("/data/home/scyb494/.conda/envs/verl/lib/python3.10/site-packages/vllm/attention/ops/prefix_prefill.py":122:25)
#loc39 = loc("/data/home/scyb494/.conda/envs/verl/lib/python3.10/site-packages/vllm/attention/ops/prefix_prefill.py":122:37)
#loc40 = loc("/data/home/scyb494/.conda/envs/verl/lib/python3.10/site-packages/vllm/attention/ops/prefix_prefill.py":122:42)
#loc41 = loc("/data/home/scyb494/.conda/envs/verl/lib/python3.10/site-packages/vllm/attention/ops/prefix_prefill.py":123:48)
#loc42 = loc("/data/home/scyb494/.conda/envs/verl/lib/python3.10/site-packages/vllm/attention/ops/prefix_prefill.py":124:17)
#loc43 = loc("/data/home/scyb494/.conda/envs/verl/lib/python3.10/site-packages/vllm/attention/ops/prefix_prefill.py":125:36)
#loc44 = loc("/data/home/scyb494/.conda/envs/verl/lib/python3.10/site-packages/vllm/attention/ops/prefix_prefill.py":125:17)
#loc45 = loc("/data/home/scyb494/.conda/envs/verl/lib/python3.10/site-packages/vllm/attention/ops/prefix_prefill.py":128:26)
#loc46 = loc("/data/home/scyb494/.conda/envs/verl/lib/python3.10/site-packages/vllm/attention/ops/prefix_prefill.py":129:26)
#loc47 = loc("/data/home/scyb494/.conda/envs/verl/lib/python3.10/site-packages/vllm/attention/ops/prefix_prefill.py":129:12)
#loc48 = loc("/data/home/scyb494/.conda/envs/verl/lib/python3.10/site-packages/vllm/attention/ops/prefix_prefill.py":130:30)
#loc49 = loc("/data/home/scyb494/.conda/envs/verl/lib/python3.10/site-packages/vllm/attention/ops/prefix_prefill.py":130:12)
#loc50 = loc("/data/home/scyb494/.conda/envs/verl/lib/python3.10/site-packages/vllm/attention/ops/prefix_prefill.py":131:42)
#loc51 = loc("/data/home/scyb494/.conda/envs/verl/lib/python3.10/site-packages/vllm/attention/ops/prefix_prefill.py":133:39)
#loc52 = loc("/data/home/scyb494/.conda/envs/verl/lib/python3.10/site-packages/vllm/attention/ops/prefix_prefill.py":134:56)
#loc53 = loc("/data/home/scyb494/.conda/envs/verl/lib/python3.10/site-packages/vllm/attention/ops/prefix_prefill.py":134:26)
#loc54 = loc("/data/home/scyb494/.conda/envs/verl/lib/python3.10/site-packages/vllm/attention/ops/prefix_prefill.py":132:35)
#loc55 = loc("/data/home/scyb494/.conda/envs/verl/lib/python3.10/site-packages/vllm/attention/ops/prefix_prefill.py":146:14)
#loc56 = loc("/data/home/scyb494/.conda/envs/verl/lib/python3.10/site-packages/vllm/attention/ops/prefix_prefill.py":183:56)
#loc57 = loc("/data/home/scyb494/.conda/envs/verl/lib/python3.10/site-packages/vllm/attention/ops/prefix_prefill.py":181:35)
#loc58 = loc("/data/home/scyb494/.conda/envs/verl/lib/python3.10/site-packages/vllm/attention/ops/prefix_prefill.py":112:47)
#loc59 = loc("/data/home/scyb494/.conda/envs/verl/lib/python3.10/site-packages/vllm/attention/ops/prefix_prefill.py":117:37)
#loc60 = loc("/data/home/scyb494/.conda/envs/verl/lib/python3.10/site-packages/vllm/attention/ops/prefix_prefill.py":115:21)
#loc61 = loc("/data/home/scyb494/.conda/envs/verl/lib/python3.10/site-packages/vllm/attention/ops/prefix_prefill.py":120:20)
#loc62 = loc("/data/home/scyb494/.conda/envs/verl/lib/python3.10/site-packages/vllm/attention/ops/prefix_prefill.py":122:17)
#loc63 = loc("/data/home/scyb494/.conda/envs/verl/lib/python3.10/site-packages/vllm/attention/ops/prefix_prefill.py":123:29)
#loc64 = loc("/data/home/scyb494/.conda/envs/verl/lib/python3.10/site-packages/vllm/attention/ops/prefix_prefill.py":123:17)
#loc65 = loc("/data/home/scyb494/.conda/envs/verl/lib/python3.10/site-packages/vllm/attention/ops/prefix_prefill.py":128:15)
#loc66 = loc("/data/home/scyb494/.conda/envs/verl/lib/python3.10/site-packages/vllm/attention/ops/prefix_prefill.py":131:23)
#loc67 = loc("/data/home/scyb494/.conda/envs/verl/lib/python3.10/site-packages/vllm/attention/ops/prefix_prefill.py":131:12)
#loc68 = loc("/data/home/scyb494/.conda/envs/verl/lib/python3.10/site-packages/vllm/attention/ops/prefix_prefill.py":132:25)
#loc69 = loc("/data/home/scyb494/.conda/envs/verl/lib/python3.10/site-packages/vllm/attention/ops/prefix_prefill.py":143:23)
#loc70 = loc("/data/home/scyb494/.conda/envs/verl/lib/python3.10/site-packages/vllm/attention/ops/prefix_prefill.py":145:22)
#loc71 = loc("/data/home/scyb494/.conda/envs/verl/lib/python3.10/site-packages/triton/language/standard.py":184:40)
#loc72 = loc("/data/home/scyb494/.conda/envs/verl/lib/python3.10/site-packages/vllm/attention/ops/prefix_prefill.py":164:26)
#loc73 = loc("/data/home/scyb494/.conda/envs/verl/lib/python3.10/site-packages/triton/language/standard.py":163:27)
#loc74 = loc("/data/home/scyb494/.conda/envs/verl/lib/python3.10/site-packages/vllm/attention/ops/prefix_prefill.py":165:29)
#loc75 = loc("/data/home/scyb494/.conda/envs/verl/lib/python3.10/site-packages/vllm/attention/ops/prefix_prefill.py":165:24)
#loc76 = loc("/data/home/scyb494/.conda/envs/verl/lib/python3.10/site-packages/vllm/attention/ops/prefix_prefill.py":165:19)
#loc77 = loc("/data/home/scyb494/.conda/envs/verl/lib/python3.10/site-packages/triton/language/standard.py":267:36)
#loc78 = loc("/data/home/scyb494/.conda/envs/verl/lib/python3.10/site-packages/vllm/attention/ops/prefix_prefill.py":166:25)
#loc79 = loc("/data/home/scyb494/.conda/envs/verl/lib/python3.10/site-packages/triton/language/standard.py":256:15)
#loc80 = loc("/data/home/scyb494/.conda/envs/verl/lib/python3.10/site-packages/vllm/attention/ops/prefix_prefill.py":168:34)
#loc81 = loc("/data/home/scyb494/.conda/envs/verl/lib/python3.10/site-packages/vllm/attention/ops/prefix_prefill.py":169:29)
#loc82 = loc("/data/home/scyb494/.conda/envs/verl/lib/python3.10/site-packages/vllm/attention/ops/prefix_prefill.py":169:23)
#loc83 = loc("/data/home/scyb494/.conda/envs/verl/lib/python3.10/site-packages/vllm/attention/ops/prefix_prefill.py":170:29)
#loc84 = loc("/data/home/scyb494/.conda/envs/verl/lib/python3.10/site-packages/vllm/attention/ops/prefix_prefill.py":170:22)
#loc85 = loc("/data/home/scyb494/.conda/envs/verl/lib/python3.10/site-packages/vllm/attention/ops/prefix_prefill.py":171:26)
#loc86 = loc("/data/home/scyb494/.conda/envs/verl/lib/python3.10/site-packages/vllm/attention/ops/prefix_prefill.py":171:39)
#loc87 = loc("/data/home/scyb494/.conda/envs/verl/lib/python3.10/site-packages/vllm/attention/ops/prefix_prefill.py":171:32)
#loc88 = loc("/data/home/scyb494/.conda/envs/verl/lib/python3.10/site-packages/vllm/attention/ops/prefix_prefill.py":175:25)
#loc89 = loc("/data/home/scyb494/.conda/envs/verl/lib/python3.10/site-packages/vllm/attention/ops/prefix_prefill.py":176:24)
#loc90 = loc("/data/home/scyb494/.conda/envs/verl/lib/python3.10/site-packages/vllm/attention/ops/prefix_prefill.py":176:16)
#loc91 = loc("/data/home/scyb494/.conda/envs/verl/lib/python3.10/site-packages/vllm/attention/ops/prefix_prefill.py":178:26)
#loc92 = loc("/data/home/scyb494/.conda/envs/verl/lib/python3.10/site-packages/vllm/attention/ops/prefix_prefill.py":178:36)
#loc93 = loc("/data/home/scyb494/.conda/envs/verl/lib/python3.10/site-packages/vllm/attention/ops/prefix_prefill.py":179:30)
#loc94 = loc("/data/home/scyb494/.conda/envs/verl/lib/python3.10/site-packages/vllm/attention/ops/prefix_prefill.py":179:20)
#loc95 = loc("/data/home/scyb494/.conda/envs/verl/lib/python3.10/site-packages/vllm/attention/ops/prefix_prefill.py":183:26)
#loc96 = loc("/data/home/scyb494/.conda/envs/verl/lib/python3.10/site-packages/vllm/attention/ops/prefix_prefill.py":181:25)
#loc97 = loc("/data/home/scyb494/.conda/envs/verl/lib/python3.10/site-packages/vllm/attention/ops/prefix_prefill.py":189:17)
#loc98 = loc("/data/home/scyb494/.conda/envs/verl/lib/python3.10/site-packages/vllm/attention/ops/prefix_prefill.py":191:24)
#loc99 = loc("/data/home/scyb494/.conda/envs/verl/lib/python3.10/site-packages/vllm/attention/ops/prefix_prefill.py":194:8)
#loc100 = loc("/data/home/scyb494/.conda/envs/verl/lib/python3.10/site-packages/vllm/attention/ops/prefix_prefill.py":196:31)
#loc101 = loc("/data/home/scyb494/.conda/envs/verl/lib/python3.10/site-packages/vllm/attention/ops/prefix_prefill.py":196:58)
#loc102 = loc("/data/home/scyb494/.conda/envs/verl/lib/python3.10/site-packages/vllm/attention/ops/prefix_prefill.py":196:44)
#loc103 = loc("/data/home/scyb494/.conda/envs/verl/lib/python3.10/site-packages/vllm/attention/ops/prefix_prefill.py":197:20)
#loc104 = loc("/data/home/scyb494/.conda/envs/verl/lib/python3.10/site-packages/vllm/attention/ops/prefix_prefill.py":197:13)
#loc105 = loc("/data/home/scyb494/.conda/envs/verl/lib/python3.10/site-packages/vllm/attention/ops/prefix_prefill.py":198:31)
#loc106 = loc("/data/home/scyb494/.conda/envs/verl/lib/python3.10/site-packages/vllm/attention/ops/prefix_prefill.py":198:58)
#loc107 = loc("/data/home/scyb494/.conda/envs/verl/lib/python3.10/site-packages/vllm/attention/ops/prefix_prefill.py":198:44)
#loc108 = loc("/data/home/scyb494/.conda/envs/verl/lib/python3.10/site-packages/vllm/attention/ops/prefix_prefill.py":199:13)
#loc109 = loc("/data/home/scyb494/.conda/envs/verl/lib/python3.10/site-packages/vllm/attention/ops/prefix_prefill.py":200:17)
#loc110 = loc("/data/home/scyb494/.conda/envs/verl/lib/python3.10/site-packages/vllm/attention/ops/prefix_prefill.py":201:17)
#loc111 = loc("/data/home/scyb494/.conda/envs/verl/lib/python3.10/site-packages/vllm/attention/ops/prefix_prefill.py":204:44)
#loc112 = loc("/data/home/scyb494/.conda/envs/verl/lib/python3.10/site-packages/vllm/attention/ops/prefix_prefill.py":204:68)
#loc113 = loc("/data/home/scyb494/.conda/envs/verl/lib/python3.10/site-packages/vllm/attention/ops/prefix_prefill.py":207:52)
#loc114 = loc("/data/home/scyb494/.conda/envs/verl/lib/python3.10/site-packages/vllm/attention/ops/prefix_prefill.py":207:42)
#loc115 = loc("/data/home/scyb494/.conda/envs/verl/lib/python3.10/site-packages/vllm/attention/ops/prefix_prefill.py":207:57)
#loc116 = loc("/data/home/scyb494/.conda/envs/verl/lib/python3.10/site-packages/vllm/attention/ops/prefix_prefill.py":212:34)
#loc117 = loc("/data/home/scyb494/.conda/envs/verl/lib/python3.10/site-packages/vllm/attention/ops/prefix_prefill.py":213:51)
#loc118 = loc("/data/home/scyb494/.conda/envs/verl/lib/python3.10/site-packages/vllm/attention/ops/prefix_prefill.py":213:21)
#loc119 = loc("/data/home/scyb494/.conda/envs/verl/lib/python3.10/site-packages/vllm/attention/ops/prefix_prefill.py":218:14)
#loc120 = loc("/data/home/scyb494/.conda/envs/verl/lib/python3.10/site-packages/vllm/attention/ops/prefix_prefill.py":220:42)
#loc121 = loc("/data/home/scyb494/.conda/envs/verl/lib/python3.10/site-packages/vllm/attention/ops/prefix_prefill.py":207:66)
#loc122 = loc("/data/home/scyb494/.conda/envs/verl/lib/python3.10/site-packages/vllm/attention/ops/prefix_prefill.py":213:32)
#loc123 = loc("/data/home/scyb494/.conda/envs/verl/lib/python3.10/site-packages/vllm/attention/ops/prefix_prefill.py":211:52)
#loc124 = loc("/data/home/scyb494/.conda/envs/verl/lib/python3.10/site-packages/vllm/attention/ops/prefix_prefill.py":211:63)
#loc125 = loc("/data/home/scyb494/.conda/envs/verl/lib/python3.10/site-packages/vllm/attention/ops/prefix_prefill.py":211:20)
#loc126 = loc("/data/home/scyb494/.conda/envs/verl/lib/python3.10/site-packages/vllm/attention/ops/prefix_prefill.py":210:20)
#loc127 = loc("/data/home/scyb494/.conda/envs/verl/lib/python3.10/site-packages/vllm/attention/ops/prefix_prefill.py":217:23)
#loc128 = loc("/data/home/scyb494/.conda/envs/verl/lib/python3.10/site-packages/vllm/attention/ops/prefix_prefill.py":221:22)
#loc129 = loc("/data/home/scyb494/.conda/envs/verl/lib/python3.10/site-packages/vllm/attention/ops/prefix_prefill.py":228:26)
#loc130 = loc("/data/home/scyb494/.conda/envs/verl/lib/python3.10/site-packages/vllm/attention/ops/prefix_prefill.py":229:29)
#loc131 = loc("/data/home/scyb494/.conda/envs/verl/lib/python3.10/site-packages/vllm/attention/ops/prefix_prefill.py":229:24)
#loc132 = loc("/data/home/scyb494/.conda/envs/verl/lib/python3.10/site-packages/vllm/attention/ops/prefix_prefill.py":229:19)
#loc133 = loc("/data/home/scyb494/.conda/envs/verl/lib/python3.10/site-packages/vllm/attention/ops/prefix_prefill.py":230:25)
#loc134 = loc("/data/home/scyb494/.conda/envs/verl/lib/python3.10/site-packages/vllm/attention/ops/prefix_prefill.py":232:34)
#loc135 = loc("/data/home/scyb494/.conda/envs/verl/lib/python3.10/site-packages/vllm/attention/ops/prefix_prefill.py":233:29)
#loc136 = loc("/data/home/scyb494/.conda/envs/verl/lib/python3.10/site-packages/vllm/attention/ops/prefix_prefill.py":233:23)
#loc137 = loc("/data/home/scyb494/.conda/envs/verl/lib/python3.10/site-packages/vllm/attention/ops/prefix_prefill.py":234:29)
#loc138 = loc("/data/home/scyb494/.conda/envs/verl/lib/python3.10/site-packages/vllm/attention/ops/prefix_prefill.py":234:22)
#loc139 = loc("/data/home/scyb494/.conda/envs/verl/lib/python3.10/site-packages/vllm/attention/ops/prefix_prefill.py":235:26)
#loc140 = loc("/data/home/scyb494/.conda/envs/verl/lib/python3.10/site-packages/vllm/attention/ops/prefix_prefill.py":235:39)
#loc141 = loc("/data/home/scyb494/.conda/envs/verl/lib/python3.10/site-packages/vllm/attention/ops/prefix_prefill.py":235:32)
#loc142 = loc("/data/home/scyb494/.conda/envs/verl/lib/python3.10/site-packages/vllm/attention/ops/prefix_prefill.py":238:25)
#loc143 = loc("/data/home/scyb494/.conda/envs/verl/lib/python3.10/site-packages/vllm/attention/ops/prefix_prefill.py":239:24)
#loc144 = loc("/data/home/scyb494/.conda/envs/verl/lib/python3.10/site-packages/vllm/attention/ops/prefix_prefill.py":239:16)
#loc145 = loc("/data/home/scyb494/.conda/envs/verl/lib/python3.10/site-packages/vllm/attention/ops/prefix_prefill.py":241:26)
#loc146 = loc("/data/home/scyb494/.conda/envs/verl/lib/python3.10/site-packages/vllm/attention/ops/prefix_prefill.py":241:36)
#loc147 = loc("/data/home/scyb494/.conda/envs/verl/lib/python3.10/site-packages/vllm/attention/ops/prefix_prefill.py":242:30)
#loc148 = loc("/data/home/scyb494/.conda/envs/verl/lib/python3.10/site-packages/vllm/attention/ops/prefix_prefill.py":242:20)
#loc149 = loc("/data/home/scyb494/.conda/envs/verl/lib/python3.10/site-packages/vllm/attention/ops/prefix_prefill.py":247:32)
#loc150 = loc("/data/home/scyb494/.conda/envs/verl/lib/python3.10/site-packages/vllm/attention/ops/prefix_prefill.py":247:51)
#loc151 = loc("/data/home/scyb494/.conda/envs/verl/lib/python3.10/site-packages/vllm/attention/ops/prefix_prefill.py":247:21)
#loc152 = loc("/data/home/scyb494/.conda/envs/verl/lib/python3.10/site-packages/vllm/attention/ops/prefix_prefill.py":245:63)
#loc153 = loc("/data/home/scyb494/.conda/envs/verl/lib/python3.10/site-packages/vllm/attention/ops/prefix_prefill.py":245:20)
#loc154 = loc("/data/home/scyb494/.conda/envs/verl/lib/python3.10/site-packages/vllm/attention/ops/prefix_prefill.py":244:20)
#loc155 = loc("/data/home/scyb494/.conda/envs/verl/lib/python3.10/site-packages/vllm/attention/ops/prefix_prefill.py":249:17)
#loc156 = loc("/data/home/scyb494/.conda/envs/verl/lib/python3.10/site-packages/vllm/attention/ops/prefix_prefill.py":251:24)
#loc157 = loc("/data/home/scyb494/.conda/envs/verl/lib/python3.10/site-packages/vllm/attention/ops/prefix_prefill.py":254:8)
#loc158 = loc("/data/home/scyb494/.conda/envs/verl/lib/python3.10/site-packages/vllm/attention/ops/prefix_prefill.py":257:59)
#loc159 = loc("/data/home/scyb494/.conda/envs/verl/lib/python3.10/site-packages/vllm/attention/ops/prefix_prefill.py":258:19)
#loc160 = loc("/data/home/scyb494/.conda/envs/verl/lib/python3.10/site-packages/vllm/attention/ops/prefix_prefill.py":258:8)
#loc161 = loc("/data/home/scyb494/.conda/envs/verl/lib/python3.10/site-packages/vllm/attention/ops/prefix_prefill.py":258:31)
#loc162 = loc("/data/home/scyb494/.conda/envs/verl/lib/python3.10/site-packages/vllm/attention/ops/prefix_prefill.py":259:21)
#loc163 = loc("/data/home/scyb494/.conda/envs/verl/lib/python3.10/site-packages/vllm/attention/ops/prefix_prefill.py":261:13)
#loc164 = loc("/data/home/scyb494/.conda/envs/verl/lib/python3.10/site-packages/vllm/attention/ops/prefix_prefill.py":264:4)
#loc165 = loc(callsite(#loc71 at #loc72))
#loc166 = loc(callsite(#loc73 at #loc71))
#loc167 = loc(callsite(#loc77 at #loc78))
#loc168 = loc(callsite(#loc79 at #loc77))
#loc169 = loc(callsite(#loc71 at #loc129))
#loc170 = loc(callsite(#loc77 at #loc133))
#loc171 = loc(callsite(#loc166 at #loc72))
#loc172 = loc(callsite(#loc168 at #loc78))
#loc173 = loc(callsite(#loc166 at #loc129))
#loc174 = loc(callsite(#loc168 at #loc133))
